Assets/Scenes/nouse/ML/Model/M3/My Behavior.onnx (onnx, 138549 bytes, 23 tensors)

discrete_act_size_vector f4 [1, 3]
2.0 10.0 2.0
00000000: 0000 0040 0000 2041 0000 0040

network_body._body_endoder.seq_layers.0.weight f4 [64, 12]
0.61770415 0.18026975 -0.02163561 0.3790638 -0.55958366 -0.11803729 0.63033444 0.03449783
0.1905843 -0.205728 -0.022301724 0.22322533 -0.36042845 0.87121254 0.30160713 0.18320626
0.21163945 -0.03092396 -0.31238902 1.0266002 -0.084805734 -0.124970034 -0.53067195 -0.45802677
0.6350213 0.0033335148 -0.102096595 0.44845164 -0.273305 0.36344537 1.1467971 0.030849257
0.21120939 0.31971732 0.050335623 0.01516473 -0.59690964 1.5852425 0.42041585 0.028135436
0.075054735 -0.4314532 -0.12159078 1.1091454 -0.12547185 0.24006735 -0.030459287 -0.6396726
-0.93312085 0.40801355 0.17817593 -0.06686377 -0.2564601 0.21627794 -0.80777687 -0.03828872
0.07701421 0.12086466 0.08022339 0.12096622 0.37747493 0.2821958 0.011136301 0.010371262
-0.15966477 -0.17831673 0.9923489 0.49086046 0.44068784 -0.038828555 -0.24388926 0.5646654
0.5955313 0.6786224 0.28825822 -0.37082252 -0.14495301 0.5574582 0.7455558 0.18492197
0.28614205 0.029106382 -0.42678422 0.09597348 0.34560984 -0.71695954 -0.043525208 0.2703334
0.24865927 0.59924364 -1.832003 -0.4973587 -0.2769242 -0.27124566 -0.03696955 0.40337336
0.5212506 0.05660184 -0.0011538883 0.10370107 -0.251849 -0.31339905 -0.21019772 1.0713127
-0.17814466 -0.14231175 -0.38870594 -0.034708977 -0.26717758 -0.48284993 -0.28533086 0.06164115
0.12889206 0.7460878 -0.39668202 0.1701646 -0.41120017 -0.03927228 -0.2096502 0.71478915
0.9218049 0.018163154 -0.10598293 -0.061908163 0.24009205 0.26986647 -0.14680067 0.13155535
0.0032024083 0.068318285 -0.58078736 0.11426473 -0.038551703 0.36362845 -0.481124 -0.030053584
-0.24313754 0.45549688 0.34837028 0.66684675 0.2210373 0.04565372 -0.25863653 0.4388458
-0.10104263 0.7174472 -0.49856785 0.20772201 -0.52850586 0.7753413 -0.28746483 1.0947376
-0.14491671 -0.17277333 -0.45152786 0.37096265 0.18277247 1.043481 0.32301497 0.1382874
0.12679148 -0.028784141 -0.7240779 1.1589066 0.3865442 -0.13151108 0.016373448 0.20931858
0.06139343 0.63557607 -0.030932948 -0.08575423 -0.20210189 0.42419535 -0.82650423 0.2165708
0.299705 0.19849329 -0.112441696 0.3440454 0.18067834 0.23837772 0.008355482 -0.3147003
-0.4328444 0.48163322 -0.41238326 0.015505366 -0.019995956 0.31906277 -0.2070823 -0.22238122
-0.9101803 0.41219878 0.20541155 0.16197135 -0.19319159 0.18217729 -0.2751584 -0.14666556
0.23592535 0.30938148 -0.17043756 0.19213794 0.5729309 -0.1785662 -0.059167877 -0.033153452
-0.09803564 0.28926218 1.2223933 -0.036574468 -0.422027 -0.14049615 -0.038187366 0.7119243
-0.26291373 0.56127274 0.048283704 0.005995502 -0.05337708 0.7251608 -0.1081372 0.24445738
0.010877334 -0.06837264 -0.18662366 0.71932864 -0.11668702 0.54534346 -0.42585337 -0.35243675
-0.36151934 -0.06252315 0.44515142 0.33754492 -0.21484219 0.3363792 -0.49101248 0.36378378
0.04881348 0.37138945 -0.34074062 0.48288763 -0.29920167 0.17798229 0.8379993 -0.24793802
0.4027858 -0.061793722 -0.07642022 -0.24049392 -1.4641086 0.6754939 -0.616064 0.09199823
00000000: dc21 1e3f a298 383e 2a3d b1bc a714 c23e
00000010: e040 0fbf 89bd f1bd 995d 213f 994d 0d3d
00000020: 8828 433e 5caa 52be 1bb2 b6bc 2e95 643e
00000030: 148a b8be c907 5f3f 406c 9a3e 6c9a 3b3e
00000040: 03b8 583e 3f54 fdbc 74f1 9fbe a367 833f
00000050: a1ae adbd 4af0 ffbd 1eda 07bf 7c82 eabe
00000060: c290 223f 1977 5a3b 0518 d1bd 749b e53e
00000070: a2ee 8bbe 8315 ba3e 3fca 923f 95b7 fc3c
00000080: 4647 583e fdb1 a33e ba2c 4e3d 7d75 783c
00000090: 12cf 18bf 3ae9 ca3f bf40 d73e 497c e63c
000000a0: 4cb6 993d 6fe7 dcbe 9604 f9bd 7af8 8d3f
000000b0: b17b 00be 37d4 753e c185 f9bc 95c1 23bf
000000c0: 02e1 6ebf 27e7 d03e c073 363e dfef 88bd
000000d0: bd4e 83be f777 5d3e 77ca 4ebf a2d4 1cbd
000000e0: a0b9 9d3d e487 f73d 294c a43d 23bd f73d
000000f0: 6544 c13e f87b 903e 0875 363c 3aec 293c
00000100: 297f 23be a998 36be 940a 7e3f 1052 fb3e
00000110: d6a1 e13e b10a 1fbd 1bbe 79be e98d 103f
00000120: bd74 183f 33ba 2d3f 9596 933e 73dc bdbe
00000130: 906e 14be 95b5 0e3f bfdc 3e3f 2f5c 3d3e
00000140: 3681 923e 8270 ee3c 7683 dabe be8d c43d
00000150: c6f3 b03e a98a 37bf 7d47 32bd 2469 8a3e
00000160: 89a0 7e3e 0868 193f 137f eabf cda5 febe
00000170: 02c9 8dbe b6e0 8abe 626d 17bd f486 ce3e
00000180: ae70 053f 55d7 673d 113e 97ba 3a61 d43d
00000190: 5af2 80be d775 a0be 123e 57be c620 893f
000001a0: 8e6b 36be 2cba 11be 7704 c7be 002b 0ebd
000001b0: 80cb 88be 1b38 f7be e316 92be 6e7b 7c3d
000001c0: 48fc 033e 9cff 3e3f e819 cbbe a13f 2e3e
000001d0: d488 d2be f8db 20bd 8bae 56be 6cfc 363f
000001e0: 68fb 6b3f e5ca 943c 940d d9bd 6a93 7dbd
000001f0: b1da 753e f02b 8a3e ea52 16be 72b6 063e
00000200: 7fdf 513b 75ea 8b3d 7bae 14bf a003 ea3d
00000210: 64e8 1dbd 822d ba3e e355 f6be ef32 f6bc
00000220: 0cf9 78be e336 e93e 975d b23e 78b6 2a3f
00000230: 9a57 623e 65ff 3a3d 026c 84be 66b0 e03e
00000240: 70ef cebd 9faa 373f 4944 ffbe 14b5 543e
00000250: 294c 07bf c47c 463f 972e 93be 5d20 8c3f
00000260: 0c65 14be 7eeb 30be a92e e7be d1ee bd3e
00000270: b528 3b3e c990 853f 3862 a53e 369b 0d3e
00000280: a0d5 013e b8cc ebbc 2b5d 39bf 0d57 943f
00000290: 1fe9 c53e d7aa 06be 9c21 863c 9c57 563e
000002a0: ad77 7b3d 1db5 223f 1867 fdbc ea9f afbd
000002b0: ccf3 4ebe 2230 d93e c895 53bf bcc4 5d3e
000002c0: ef72 993e d341 4b3e d547 e6bd b826 b03e
000002d0: be03 393e 4a19 743e 6ee5 083c 6620 a1be
000002e0: c89d ddbe a198 f63e e623 d3be 380a 7e3c
000002f0: 8fce a3bc 325c a33e 620d 54be e7b7 63be
00000300: 9301 69bf b80b d33e 6857 523e d1db 253e
00000310: 04d4 45be af8c 3a3e 90e1 8cbe 7f2f 16be
00000320: 6a96 713e 4067 9e3e 2f87 2ebe cfbf 443e
00000330: 99ab 123f 0fda 36be 045a 72bd eacb 07bd
00000340: e9c6 c8bd 2c1a 943e 6277 9c3f 1ccf 15bd
00000350: ec13 d8be 39de 0fbe 5b6a 1cbd ac40 363f
00000360: a19c 86be 92af 0f3f 22c5 453d eb75 c43b
00000370: eda1 5abd 23a4 393f 0977 ddbd 0953 7a3e
00000380: d836 323c f406 8cbd 461a 3fbe ec25 383f
00000390: 9bf9 eebd a19b 0b3f 7409 dabe 9772 b4be
000003a0: 1019 b9be 230c 80bd e3ea e33e b0d2 ac3e
000003b0: 97ff 5bbe e539 ac3e fd65 fbbe de41 ba3e
000003c0: a5f0 473d c226 be3e 8e75 aebe 0c3d f73e
000003d0: f630 99be fd40 363e 1f87 563f 77e3 7dbe
000003e0: f139 ce3e 6a1b 7dbd 3482 9cbd 0a44 76be
000003f0: e967 bbbf 2bed 2c3f 5fb6 1dbf 9169 bc3d

network_body._body_endoder.seq_layers.0.bias f4 [64]
-0.10094889 -0.19881581 -0.1242412 0.1383273 -0.56329453 -0.10906305 -0.1824152 -0.10660517
0.08441731 -0.5159056 -0.10533179 -0.45895195 -0.5366462 -0.1692516 -0.2376916 -0.3618896
-0.27806097 -0.42233154 -0.7534553 -0.35273904 0.08248834 0.05055548 -0.46721745 -0.40108037
-0.06379462 0.3445039 -0.5161777 -0.015523568 -0.11810283 0.033872306 -0.3604368 0.050342232
-0.31827024 -0.34718055 -0.19184522 -0.053913426 -0.32612807 -0.2644874 -0.66625047 -0.20295656
-0.3520357 -0.52089894 -0.4412482 -0.51318526 -0.007535032 -0.20171267 -0.45447186 -0.20891291
-0.46537796 -0.21458237 -0.24759653 -0.4616048 -0.11960165 -0.06008743 -0.17563328 0.3120229
0.04955069 -0.47635886 -0.376222 -0.09721879 0.107059926 -0.13844582 -0.5435352 -0.7055285
00000000: 4bbe cebd 5f96 4bbe 2c72 febd aca5 0d3e
00000010: 1234 10bf 735c dfbd 0dcb 3abe d053 dabd
00000020: fce2 ac3d 6412 04bf 32b8 d7bd c0fb eabe
00000030: a561 09bf 4b50 2dbe 6d65 73be 9849 b9be
00000040: 025e 8ebe d73b d8be 72e2 40bf 369a b4be
00000050: a6ef a83d 4313 4f3d 2037 efbe 685a cdbe
00000060: c1a6 82bd d162 b03e 3924 04bf 9056 7ebc
00000070: e6df f1bd b0bd 0a3d 2c8b b8be a833 4e3d
00000080: 51f4 a2be a6c1 b1be 1373 44be 53d4 5cbd
00000090: 42fa a6be e46a 87be 648f 2abf d8d3 4fbe
000000a0: 063e b4be a259 05bf 49eb e1be 1c60 03bf
000000b0: 6ee8 f6bb c48d 4ebe 89b0 e8be 44ed 55be
000000c0: 0546 eebe 7bbb 5bbe f289 7dbe 7757 ecbe
000000d0: b6f1 f4bd 3d1e 76bd 36d9 33be 77c1 9f3e
000000e0: aaf5 4a3d 4fe5 f3be 2ca0 c0be a51a c7bd
000000f0: 3c42 db3d bec4 0dbe 1f25 0bbf 849d 34bf

network_body._body_endoder.seq_layers.2.weight f4 [64, 64]
-0.11647032 0.6297352 -0.27721426 0.045759615 -0.33819303 0.23773229 0.11958861 -0.55978113
0.09443236 0.016962247 0.11638713 0.24703051 0.52052915 0.06651328 0.24625726 0.20980872
-0.19274841 0.012110736 0.07133328 0.25182533 0.14056991 0.3979261 0.10019284 -0.32656264
-0.281319 -0.15721577 0.22880991 -0.117467195 -0.03629664 -0.030677572 -0.047186382 0.1865938
-0.4139736 0.09024253 0.1736004 0.114525154 -0.5413599 -0.091172434 -0.106552914 -0.091213696
0.17558998 -0.14302577 -0.35894927 0.22320162 0.2832827 0.1735624 0.13479507 -0.11821928
-0.1926244 -0.25605616 0.21543036 0.04985938 0.5129366 0.20492035 -0.014975274 -0.30599183
0.20424402 -0.3588782 -0.0956976 0.24740148 0.037676185 0.17275071 -0.006310935 0.41662386
-0.62645584 -0.7795499 -0.10796331 -0.53469676 0.07624877 -0.37363344 -0.2580765 0.34218505
-0.3919744 0.2930565 -0.1303534 -0.0917839 -0.51762223 0.041925102 -0.32820335 0.28169897
-0.22553211 -0.089399286 -0.024363829 -0.295729 -0.5277492 -0.7573065 -0.04182089 0.2726526
0.24437416 -0.023216074 0.13229157 -0.5143005 -0.62048405 -0.22727384 -0.22347979 -0.42151317
0.11236731 0.22841518 -0.18839765 0.024178712 0.07546682 -0.53879184 -0.15394737 -0.0026641355
-0.0869019 -0.17506404 0.24689572 -0.14479634 -0.026191855 -0.5424239 0.25667626 -0.18099913
-0.13672224 0.16246681 0.021783713 0.2015489 -0.30004695 -0.11376586 -0.22975652 0.02533109
0.033786096 -0.024874978 -0.22904304 -0.54501677 0.1311 0.29698214 -0.17226002 0.23779747
0.06959367 0.015649982 -0.15005709 0.26912668 0.024024328 -0.19780636 0.121643394 -0.41576436
-0.33716327 0.1509588 -0.1101823 -0.08742323 -0.12255555 -0.23262008 -0.37097743 0.08180331
-0.011605436 -0.17497037 -0.21813248 0.17817186 0.41806033 -0.74274725 0.039444767 -0.2731465
-0.14771776 0.29984185 -0.8823396 0.19208506 -0.6645399 -0.265881 0.36777604 0.21322669
-0.11168583 -0.36046767 0.16545764 0.07602228 0.041503716 0.07951936 0.16295362 -0.1560942
-0.23700863 0.03582249 0.13152148 0.10707288 0.016830023 0.18542677 0.17635207 0.120645076
-0.2672074 -0.05257251 0.15378262 -0.8686388 -0.5326456 0.2667487 -0.1370302 0.24154949
0.061995566 -0.32877216 -0.016077397 0.018515483 -0.3021627 -0.100282595 -0.4308849 -0.043618448
-0.17258145 -0.5260725 -0.035491966 -0.44680446 -0.14225212 0.04945807 0.19318466 -0.42594862
-0.31589824 -0.020758498 0.2601368 -0.33372417 -0.4822018 -0.25243512 -0.5124408 0.10099182
-0.18929657 0.4702672 -0.41126347 0.070325114 0.1481032 -0.51952165 -0.02331273 0.020806076
-0.31890348 -0.28291085 0.028772883 -0.14862041 -0.3037872 -0.30453706 -0.5874412 -0.08358194
-0.22911957 -0.4332813 -0.45934325 0.26088947 -0.65772414 -0.001873609 0.08569956 -0.73289096
-0.09400926 -0.29852515 0.29369155 -0.21920826 -0.51697874 -0.22758397 -0.05249899 0.08057914
-0.36594582 -0.092829265 -0.07180965 0.13780807 -0.16136064 -0.32719043 -0.3559992 0.29468986
-0.5046566 -0.586602 -0.06215211 0.07156062 0.105733015 -0.1934938 -0.48747614 -0.36594322
00000000: fe87 eebd 5336 213f 07ef 8dbe 6f6e 3b3d
00000010: a327 adbe 1870 733e e0ea f43d d14d 0fbf
00000020: c165 c13d 69f4 8a3c 605c ee3d 91f5 7c3e
00000030: 6641 053f 1d38 883d dd2a 7c3e 19d8 563e
00000040: d75f 45be 1c6c 463c 2f17 923d 40ef 803e
00000050: 8ff1 0f3e f8bc cb3e e731 cd3d 3833 a7be
00000060: 0b09 90be 2cfd 20be 254d 6a3e a492 f0bd
00000070: c9ab 14bd 884f fbbc 8246 41bd 7212 3f3e
00000080: 59f4 d3be 13d1 b83d 4ec4 313e 2a8c ea3d
00000090: 9096 0abf 9db8 babd 6a38 dabd 3fce babd
000000a0: dccd 333e 5975 12be 33c8 b7be f78e 643e
000000b0: 6e0a 913e 57ba 313e b807 0a3e f31c f2bd
000000c0: 553f 45be cb19 83be c799 5c3e 5939 4c3d
000000d0: d04f 033f a4d6 513e da5a 75bc f6aa 9cbe
000000e0: 5825 513e e2be b7be 1afd c3bd d056 7d3e
000000f0: 5852 1a3d 90e5 303e f6cb cebb b94f d53e
00000100: 695f 20bf 9590 47bf de1b ddbd e3e1 08bf
00000110: 5128 9c3d e24c bfbe 9a22 84be e132 af3e
00000120: deb0 c8be 800b 963e 5d7b 05be 33f9 bbbd
00000130: e482 04bf a8b9 2b3d 450a a8be d93a 903e
00000140: e4f1 66be f916 b7bd a796 c7bc cb69 97be
00000150: 921a 07bf d7de 41bf 624c 2bbd 1f99 8b3e
00000160: 383d 7a3e a32f bebc 7177 073e 33a9 03bf
00000170: 0bd8 1ebf 79ba 68be e3d7 64be 93d0 d7be
00000180: d520 e63d abe5 693e 50eb 40be 6f12 c63c
00000190: 598e 9a3d 43ee 09bf 61a4 1dbe c798 2ebb
000001a0: a0f9 b1bd fd43 33be 3bd2 7c3e 7e45 14be
000001b0: 4d90 d6bc 4bdc 0abf 126b 833e d657 39be
000001c0: ea00 0cbe b35d 263e c273 b23c d662 4e3e
000001d0: c19f 99be 13fe e8bd 4b45 6bbe 2583 cf3c
000001e0: 4a63 0a3d 9cc6 cbbc 428a 6abe 3886 0bbf
000001f0: 143f 063e 0b0e 983e ee64 30be 2e81 733e
00000200: 2087 8e3d 6434 803c 91a8 19be f9ca 893e
00000210: abce c43c c08d 4abe 2c20 f93d 11df d4be
00000220: aaa0 acbe f294 1a3e 42a7 e1bd f30a b3bd
00000230: 67fe fabd f533 6ebe c1f0 bdbe 7e88 a73d
00000240: ba24 3ebc 6f2b 33be 1f5e 5fbe af72 363e
00000250: 010c d63e af24 3ebf d690 213d dcd9 8bbe
00000260: 5343 17be df84 993e 02e1 61bf f2b1 443e
00000270: 491f 2abf 8e21 88be 244d bc3e 1958 5a3e
00000280: 8abb e4bd 388f b8be ba6d 293e 92b1 9b3d
00000290: cdff 293d 0cdb a23d 50dd 263e 28d7 1fbe
000002a0: 64b2 72be 9aba 123d 91ad 063e 0749 db3d
000002b0: 1edf 893c 84e0 3d3e a395 343e c414 f73d
000002c0: 69cf 88be 4656 57bd 3179 1d3e 1d5f 5ebf
000002d0: 765b 08bf 4993 883e a551 0cbe c058 773e
000002e0: 10ef 7d3d d354 a8be bfb4 83bc c8ad 973c
000002f0: 12b5 9abe f660 cdbd f29c dcbe 42a9 32bd
00000300: 31b9 30be b0ac 06bf 0660 11bd 8ec3 e4be
00000310: 8aaa 11be 8c94 4a3d 33d2 453e f015 dabe
00000320: 6abd a1be ba0d aabc a730 853e e5dd aabe
00000330: 28e3 f6be 2d3f 81be 522f 03bf cdd4 ce3d
00000340: f6d6 41be ddc6 f03e 2091 d2be 9d06 903d
00000350: 5ea8 173e 5fff 04bf 57fa bebc 8171 aa3c
00000360: 5147 a3be b1d9 90be 1cb5 eb3c f32f 18be
00000370: ff89 9bbe 48ec 9bbe 8c62 16bf 022d abbd
00000380: 529e 6abe 0cd7 ddbe 0a2f ebbe 4e93 853e
00000390: 9c60 28bf e393 f5ba 4083 af3d be9e 3bbf
000003a0: ed87 c0bd 4ad8 98be bd5e 963e 2178 60be
000003b0: b858 04bf c60b 69be 2e09 57bd ad06 a53d
000003c0: 405d bbbe 451d bebd f010 93bd 8f1d 0d3e
000003d0: b93b 25be 8185 a7be 8745 b6be 97e1 963e
000003e0: 2d31 01bf 8c2b 16bf 3693 7ebd 608e 923d
000003f0: 8d8a d83d 3d23 46be 7996 f9be e95c bbbe

network_body._body_endoder.seq_layers.2.bias f4 [64]
-0.2105195 0.10151464 -0.03937577 0.0049917656 -0.24463575 -0.0297897 -0.24261329 -0.29411814
-0.18788096 0.054707117 -0.18376005 0.089026496 -0.28494602 -0.072618775 -0.14850815 0.11284107
0.3680563 -0.04255392 -0.17234598 0.2902243 0.2108964 -0.13552068 -0.012238153 -0.2503668
-0.061929293 -0.18831094 -0.36997423 -0.20888901 -0.3856169 -0.11784226 -0.24343291 0.05419848
-0.011622136 -0.027706131 -0.22927031 -0.32829845 0.019073559 0.023572605 -0.31706646 -0.11470089
-0.39256266 -0.21864945 -0.3150729 -0.2669443 -0.19764923 -0.62937176 -0.26190025 -0.15903622
-0.07536238 -0.3592009 -0.27136117 -0.26076743 -0.49807572 -0.29123908 -0.01863017 -0.3280813
-0.16923653 -0.44131368 -0.037086245 -0.2645151 -0.053195924 -0.2902526 -0.37616393 -0.24854007
00000000: 6c92 57be e8e6 cf3d 7d48 21bd f791 a33b
00000010: cb81 7abe 8709 f4bc 9e6f 78be a796 96be
00000020: de63 40be 9214 603d 982b 3cbe 8653 b63d
00000030: 72e4 91be 27b9 94bd 8512 18be 3819 e73d
00000040: e071 bc3e 054d 2ebd 777b 30be 4898 943e
00000050: 3af5 573e efc5 0abe 8982 48bc 1430 80be
00000060: 92a9 7dbd 95d4 40be 436d bdbe 00e7 55be
00000070: 946f c5be 4857 f1bd 7a46 79be 3aff 5d3d
00000080: c66a 3ebc f8f7 e2bc d6c5 6abe bc16 a8be
00000090: 2740 9c3c 561b c13c 8956 a2be 4de8 eabd
000000a0: f9fd c8be a4e5 5fbe 3c51 a1be ecac 88be
000000b0: 8f64 4abe 821e 21bf ca17 86be 64da 22be
000000c0: 9757 9abd 2ee9 b7be daef 8abe 4f83 85be
000000d0: c803 ffbe 4a1d 95be 4c9e 98bc 46fa a7be
000000e0: 574c 2dbe def3 e1be bfe7 17bd 866e 87be
000000f0: f8e3 59bd fd9b 94be 8f98 c0be 4a81 7ebe

network_body._body_endoder.seq_layers.4.weight f4 [64, 64]
-0.5483017 -0.5439388 0.32015243 0.36687657 -0.1488548 0.16925374 -0.27993378 0.1600629
0.027631937 -0.10070182 0.10425493 0.3727637 -0.021002876 -0.18036465 0.1548309 -0.26853973
-0.0052851844 -0.08430538 0.20713058 -0.49616936 0.09243081 -0.07740097 -0.31482336 0.217692
-0.14786913 -0.17808639 -0.5907372 -0.013834395 -0.5850931 -0.10871472 0.036727607 0.36453438
-0.014317908 0.5455629 0.15705642 -0.21086718 0.36271384 -0.36190596 0.20259728 -0.36618617
-0.4090137 -0.20475897 -0.40660608 0.6470995 -0.024865625 -0.09715521 0.39938548 -0.24170272
0.2725146 -0.3992711 -0.33236086 -0.14341085 -0.16698787 0.17851149 -0.38716343 -0.045466848
0.05668058 0.42551532 0.25131032 0.26020527 0.063957505 -0.175866 0.042173482 -0.13889106
0.26294425 -0.46731216 0.38757855 0.29765162 -0.5850724 0.15472619 -0.24059683 0.16491358
-0.244981 -0.15464157 0.2680719 0.012880209 -0.46859387 0.10143931 -0.42034516 0.34568822
0.29434842 0.29166785 -0.3836185 -0.15040474 -0.3575199 0.23746149 -0.50911444 0.085638344
-0.029650286 0.21575421 -0.02244658 -0.39324623 0.17036071 -0.23814386 -0.27329263 -0.094876766
0.4191266 -0.4947922 -0.33985642 -0.008333928 -0.5151832 -0.5967083 -0.20334774 0.3204826
-0.07715644 -0.06443091 -0.25608099 -0.16240884 -0.08491365 -0.22437467 -0.14379106 -0.30341455
-0.21900679 0.030352784 -0.020270776 -0.009616583 0.17041537 0.14886042 -0.23963784 -0.13008882
-0.59927756 0.012518304 -0.008471601 -0.67364925 0.3759461 0.22895181 -0.10664244 0.13747407
-0.41992164 0.06969008 -0.47438073 0.6423205 0.0316929 0.2127608 0.05485968 -0.33793464
-0.07266315 -0.33608702 -0.03081641 -0.18931165 -0.058007143 -0.34511825 -0.070980996 -0.5496723
0.24714255 -0.2757213 -0.10227102 -0.6719691 -0.46875474 -0.2593785 -0.9459502 0.102545485
-0.30113268 -0.4894358 -0.1461551 -0.2540968 -0.33544505 -0.8884085 -0.35538945 -0.13800703
-0.47562537 0.05071713 -0.86003673 -0.1178678 -0.10063848 0.14522949 -0.19312523 0.0238373
-0.18315808 -0.17220916 0.17374332 -0.27319756 0.029364362 -0.38432223 0.17884211 -0.02417169
-0.52320033 -0.5000895 -0.12821674 -0.5476147 0.078552976 -0.63817406 -0.19496983 -0.4489633
-0.003674041 -0.12640417 -0.5607138 -0.07929317 -0.09304144 -0.16925797 0.25546312 -0.71254736
-0.3590256 -0.011948265 -0.36510554 0.102869846 -0.5975003 0.07945113 0.03848643 0.44371024
-0.050037827 0.0525508 -0.098584495 0.033235077 -0.006650917 -0.7377958 0.014952402 -0.36311308
0.20193572 -0.033898085 0.13684915 0.06870355 0.31680328 -0.2366041 0.055865545 -0.10414228
-0.05470137 -0.11975174 -0.40921798 -0.105167106 -0.1124284 -0.5177078 -0.08117042 -0.085559115
0.023246387 -0.96388066 -0.29214072 0.075046815 0.20691031 -0.01153969 -0.1456725 0.12659633
-0.5135256 0.15816586 0.42537668 -0.28348824 -0.57541084 -0.67405283 -0.10385636 -0.028246837
-0.00050304056 0.48681128 -0.20866284 -0.09565431 -0.22978063 0.018671025 -0.31046543 -0.0742869
-0.19198519 -0.16618912 0.034179997 0.004384671 -0.54322135 0.04438917 -0.27828637 -0.044039097
00000000: 805d 0cbf 933f 0bbf 05eb a33e 3fd7 bb3e
00000010: 656d 18be da50 2d3e 7b53 8fbe 87e7 233e
00000020: 5f5c e23c c13c cebd 9c83 d53d e2da be3e
00000030: 390e acbc 83b1 38be fe8b 1e3e 0a7e 89be
00000040: 572f adbb 4da8 acbd 0a1a 543e e909 febe
00000050: 5d4c bd3d 6684 9ebd 8730 a1be a7ea 5e3e
00000060: 016b 17be 475c 36be 8e3a 17bf a9a9 62bc
00000070: a9c8 15bf d3a5 debd b06f 163d 40a4 ba3e
00000080: a995 6abc 03aa 0b3f 66d3 203e 91ed 57be
00000090: a1b5 b93e bd4b b9be a975 4f3e c17c bbbe
000000a0: 3e6a d1be 56ac 51be ac2e d0be 50a8 253f
000000b0: ffb2 cbbc 50f9 c6bd 417c cc3e eb80 77be
000000c0: 0987 8b3e 436d ccbe 342b aabe 4bda 12be
000000d0: defe 2abe b7cb 363e 493a c6be 723b 3abd
000000e0: e529 683d 25dd d93e bfab 803e a039 853e
000000f0: 27fc 823d 3716 34be 1abe 2c3d 7539 0ebe
00000100: a1a0 863e 8a43 efbe b270 c63e cb65 983e
00000110: 4ec7 15bf 8b70 1e3e 045f 76be 1bdf 283e
00000120: 4ddc 7abe 5c5a 1ebe b840 893e 8307 533c
00000130: 89eb efbe 6abf cf3d 7b37 d7be 0cfe b03e
00000140: d6b4 963e 7d55 953e a569 c4be b303 1abe
00000150: d90c b7be 1b29 733e 5355 02bf 2863 af3d
00000160: 28e5 f2bc acee 5c3e e4e1 b7bc 9257 c9be
00000170: 0a73 2e3e fcdb 73be 03ed 8bbe c04e c2bd
00000180: c397 d63e 6755 fdbe a901 aebe 078b 08bc
00000190: 0ce3 03bf e0c1 18bf 643a 50be 4c16 a43e
000001a0: 3204 9ebd 5af4 83bd 0c1d 83be 814e 26be
000001b0: 35e7 adbd 79c2 65be f73d 13be 2759 9bbe
000001c0: 5143 60be 67a6 f83c e60e a6bc df8e 1dbc
000001d0: 5e81 2e3e de6e 183e 9f63 75be 0136 05be
000001e0: 416a 19bf 9319 4d3c 78cc 0abc 4774 2cbf
000001f0: 027c c03e 5872 6a3e 5a67 dabd 01c6 0c3e
00000200: f8ff d6be acb9 8e3d 08e2 f2be 1e6f 243f
00000210: 6ad0 013d f8dd 593e 8bb4 603d c505 adbe
00000220: 6bd0 94bd 9913 acbe b272 fcbc eada 41be
00000230: e698 6dbd 57b3 b0be 7c5e 91bd 53b7 0cbf
00000240: f012 7d3e 582b 8dbe 7873 d1bd 2b06 2cbf
00000250: 9f00 f0be 42cd 84be cb29 72bf 5e03 d23d
00000260: 102e 9abe 5497 fabe afa9 15be fa18 82be
00000270: 74bf abbe bd6e 63bf 9bf5 b5be b751 0dbe
00000280: 2b85 f3be c4bc 4f3d 5e2b 5cbf ac64 f1bd
00000290: 8c1b cebd 0ab7 143e 9fc2 45be 7146 c33c
000002a0: cb8d 3bbe 9957 30be c5e9 313e 8de0 8bbe
000002b0: 888d f03c e2c5 c4be 6322 373e b503 c6bc
000002c0: 75f0 05bf de05 00bf 404b 03be 7a30 0cbf
000002d0: 62e0 a03d 605f 23bf 2ca6 47be 85de e5be
000002e0: 2ec8 70bb 1870 01be f18a 0fbf 7564 a2bd
000002f0: 838c bebd f651 2dbe 10cc 823e 8169 36bf
00000300: 34d2 b7be a8c2 43bc 1def babe 6dad d23d
00000310: c8f5 18bf 46b7 a23d f2a3 1d3d fd2d e33e
00000320: 77f4 4cbd 823f 573d abe6 c9bd 8121 083d
00000330: f0ef d9bb 30e0 3cbf ebfa 743c f5e9 b9be
00000340: 3dc8 4e3e b8d8 0abd 2f22 0c3e 72b4 8c3d
00000350: 0a34 a23e 5848 72be 45d3 643d 8c48 d5bd
00000360: 8b0e 60bd 6640 f5bd 0585 d1be da61 d7bd
00000370: dc40 e6bd 8088 04bf ad3c a6bd 9e39 afbd
00000380: 356f be3c e2c0 76bf 7893 95be 25b2 993d
00000390: 4ce0 533e f810 3dbc 2c2b 15be 78a2 013e
000003a0: 6a76 03bf 3bf6 213e f9ca d93e 5f25 91be
000003b0: 204e 13bf ba8e 2cbf a5b2 d4bd e965 e7bc
000003c0: 7bde 03ba 543f f93e b6ab 55be 68e6 c3bd
000003d0: 9d4b 6bbe faf3 983c 53f5 9ebe bb23 98bd
000003e0: c497 44be 7b2d 2abe 5300 0c3d 49ad 8f3b
000003f0: 8e10 0bbf 6bd1 353d 8d7b 8ebe 5762 34bd

network_body._body_endoder.seq_layers.4.bias f4 [64]
-0.13257763 -0.12327192 0.20549862 -0.10725285 0.0055067367 -0.18181212 -0.26137483 -0.24471729
0.13477193 -0.07603529 0.10754423 -0.000653508 -0.3637449 -0.16154304 -0.10530055 0.20327823
-0.40549123 -0.045537326 -0.10494384 -0.5094962 -0.08009961 -0.032320593 -0.2827067 -0.023285577
-0.31394848 -0.30204877 -0.086755246 -0.51358724 -0.46532196 -0.2762429 -0.4172628 -0.35474998
-0.21297725 -0.22630352 -0.3466423 -0.29098412 -0.32259616 -0.28581488 -0.032621894 -0.30633467
-0.41129065 -0.33595258 -0.15216452 0.26356143 -0.47023752 -0.3040059 0.06365638 0.10241923
-0.0366856 -0.12534098 -0.27252123 -0.31783262 -0.0047332244 -0.08377671 -0.20450264 -0.38625434
-0.61331487 -0.14743473 -0.00046311636 -0.40402824 -0.22065729 -0.064910665 -0.229473 0.057837855
00000000: 6ec2 07be fd75 fcbd 3b6e 523e 62a7 dbbd
00000010: db71 b43b f52c 3abe ecd2 85be 2b97 7abe
00000020: a701 0a3e 64b8 9bbd 2640 dc3d 2e50 2bba
00000030: c63c babe 8a6b 25be d1a7 d7bd 2b28 503e
00000040: 8c9c cfbe 5985 3abd ccec d6bd 586e 02bf
00000050: 440b a4bd 9962 04bd efbe 90be 65c1 bebc
00000060: dbbd a0be 23a6 9abe bcac b1bd 747a 03bf
00000070: ae3e eebe b66f 8dbe 78a3 d5be caa1 b5be
00000080: b516 5abe 1cbc 67be 197b b1be dffb 94be
00000090: 532b a5be 5456 92be 899e 05bd e6d7 9cbe
000000a0: b094 d2be fa01 acbe 04d1 1bbe 86f1 863e
000000b0: f9c2 f0be a9a6 9bbe 475e 823d 2cc1 d13d
000000c0: a443 16bd 6359 00be e787 8bbe f5ba a2be
000000d0: 2a19 9bbb 2093 abbd 2469 51be 21c3 c5be
000000e0: 3402 1dbf 21f9 16be 6dce f2b9 cadc cebe
000000f0: fcf3 61be e2ef 84bd f8fa 6abe 63e7 6c3d

network_body._body_endoder.seq_layers.6.weight f4 [64, 64]
-0.1269982 0.066809066 0.44850862 -0.46681 -0.18297961 0.8660705 0.11332831 -0.10297567
0.124025844 0.13851051 0.2956927 0.00616627 0.12365226 -0.15733197 0.18989903 -0.19652987
-0.05320479 -0.05208111 0.28493088 0.3019752 -0.12775663 0.49115393 -0.027326643 0.25677207
0.37522316 -0.21950379 -0.2542185 -0.5361932 -0.20875825 0.30429643 0.2536452 0.027474785
0.19332726 -0.30420038 -0.49256176 0.16475722 -0.17626388 -0.0010057525 -0.5504535 0.040399455
-0.59755236 -0.095877625 -0.15322773 0.05853646 0.07256121 -0.3615048 0.053496774 -0.57777166
-0.1534276 0.00573927 -0.33451712 -0.16234572 -0.63073665 0.35510105 0.037244346 0.118969955
0.09035169 0.045610607 -0.1816064 -0.8112088 0.32061824 0.17216013 0.2691482 0.066678785
0.24575105 0.29029742 0.47794813 -0.052139826 -0.31346777 -0.2637969 -0.29888004 -0.062123187
0.15053792 -0.04734884 0.10785953 0.23647991 -0.3547653 -0.44496042 0.4046564 -0.021398585
0.10138604 -0.43729797 0.07932478 0.012489736 0.08123029 -0.08074714 -0.09753663 -0.34818786
-0.44159213 -0.21447733 0.06837941 0.20813498 0.09549735 0.42672932 0.29991576 0.10670065
-0.15334734 -0.07343848 -0.35286036 0.22861613 -0.068317614 -1.0296227 -0.009219703 -0.0051428243
-0.8094473 0.15717448 -0.9543753 0.38584667 -0.21592964 -0.02356604 0.037243057 -0.009842721
-0.022033 -0.5109638 0.14175007 -0.3318744 -0.3195884 -0.37058958 -0.113669455 -0.14553368
-0.5512968 -0.119133815 -0.09186002 -0.27151322 0.3279417 -0.16850276 -0.251711 0.44664377
0.18264374 0.29512122 -0.17381988 -0.3033279 0.17516956 0.37252018 0.43567786 0.29160765
-0.12539394 -0.038588367 0.07283749 -0.03615241 0.10830561 0.117975496 -0.657745 -0.07947204
0.17033142 0.07556477 0.3647925 0.07312754 -0.24580456 0.013474705 0.31513077 -0.02400355
-0.214891 -0.06371891 0.2631393 0.109015405 -0.14957105 0.3545889 -0.4351618 0.3759072
-0.0039075646 0.7113806 0.10318536 -0.029530816 -0.2074138 -0.18232504 -0.3890111 -0.009381998
0.012429769 0.28024012 0.039260007 0.0693478 0.11331634 -0.14341003 0.2600526 0.20403565
0.11699996 -0.029051403 -0.22650287 -0.21244311 -0.47150397 0.24020284 -0.012915495 -0.11566337
0.49043715 0.16394138 -0.2291287 -0.084322885 0.30530402 0.12972842 0.36126453 0.106759034
0.20923115 -0.43030062 0.24704342 0.30602437 0.029503098 0.41047573 0.3924712 -0.0037723132
-0.5133621 -0.0420991 0.40560004 -0.21499495 -0.12744007 0.19832455 -0.18113995 0.29865363
0.07120342 0.18005665 -0.5997947 -0.12526208 0.05231734 0.12167077 0.37422025 -0.44901228
0.10460251 0.5395236 0.35692954 -0.12772362 0.1732642 0.049086563 -0.1865916 0.3926562
0.44771698 0.28829452 0.22235097 -0.11978317 -0.04961606 -0.07935371 0.13336855 0.5434704
0.050653044 0.06806639 0.26640892 -0.34097326 0.15828963 0.12269284 -0.2217401 -0.24885082
-0.1941001 0.4115541 -0.104834795 0.24391991 0.014545597 0.0685046 -0.066740096 0.01409375
-0.030316956 -0.20675385 -0.23358402 0.10500122 -0.0672201 -0.33680958 -0.23672967 0.40060264
00000000: d10b 02be 31d3 883d eca2 e53e b801 efbe
00000010: 025f 3bbe ccb6 5d3f ac18 e83d e8e4 d2bd
00000020: 4301 fe3d b3d5 0d3e 0965 973e 6c0e ca3b
00000030: 653d fd3d a21b 21be e474 423e 203f 49be
00000040: 44ed 59bd 0153 55bd 76e2 913e 7e9c 9a3e
00000050: a2d2 02be 8778 fb3e 20dc dfbc a177 833e
00000060: 401d c03e 9ac5 60be ed28 82be f543 09bf
00000070: b9c4 55be becc 9b3e c9dd 813e cd12 e13c
00000080: 95f7 453e 27c0 9bbe 0e31 fcbe 1eb6 283e
00000090: 857e 34be 74d3 83ba 85ea 0cbf e679 253d
000000a0: 31f9 18bf 7d5b c4bd bbe7 1cbe edc3 6f3d
000000b0: f99a 943d 2817 b9be 6f1f 5b3d d8e8 13bf
000000c0: 201c 1dbe 7c10 bc3b d445 abbe f53d 26be
000000d0: f577 21bf cecf b53e 878d 183d 85a6 f33d
000000e0: 4f0a b93d 30d2 3a3d 07f7 39be 61ab 4fbf
000000f0: 1328 a43e bf4a 303e cbcd 893e e38e 883d
00000100: 2aa6 7b3e dda1 943e 9eb5 f43e 9290 55bd
00000110: d97e a0be 6310 87be ce06 99be e274 7ebd
00000120: 9d26 1a3e dbf0 41bd 75e5 dc3d ca27 723e
00000130: cca3 b5be dad1 e3be 202f cf3e 164c afbc
00000140: 7ca3 cf3d 85e5 dfbe 0875 a23d c0a1 4c3c
00000150: 115c a63d c25e a5bd 49c1 c7bd ae45 b2be
00000160: 5d18 e2be f29f 5bbe 810a 8c3d 5621 553e
00000170: 1d94 c33d 447c da3e 8f8e 993e df85 da3d
00000180: 1607 1dbe ea66 96bd 1daa b4be 591a 6a3e
00000190: 1bea 8bbd adca 83bf 3d0e 17bc 2385 a8bb
000001a0: f037 4fbf 59f2 203e f151 74bf b28d c53e
000001b0: a91c 5dbe 910d c1bc 2d8c 183d 5d43 21bc
000001c0: 8d7e b4bc 86ce 02bf ee26 113e 71eb a9be
000001d0: 17a1 a3be ebbd bdbe 88cb e8bd c806 15be
000001e0: c921 0dbf 6efc f3bd 1b21 bcbd c803 8bbe
000001f0: f9e7 a73e fd8b 2cbe 44e0 80be 7eae e43e
00000200: f606 3b3e 211a 973e d7fd 31be cb4d 9bbe
00000210: a65f 333e f7ba be3e 2b11 df3e 994d 953e
00000220: 4567 00be d60e 1ebd d22b 953d 8d14 14bd
00000230: 55cf dd3d 239d f13d fa61 28bf 3dc2 a2bd
00000240: 5c6b 2e3e b4c1 9a3d 15c6 ba3e e4c3 953d
00000250: 31b4 7bbe 02c5 5c3c d258 a13e 18a3 c4bc
00000260: 630c 5cbe 0f7f 82bd 32ba 863e 7843 df3d
00000270: 2729 19be ad8c b53e 87cd debe e976 c03e
00000280: 070b 80bb 0a1d 363f d952 d33d 9cea f1bc
00000290: 4864 54be 6ab3 3abe 772c c7be f4b6 19bc
000002a0: 3ba6 4b3c a27b 8f3e 1acf 203d 3806 8e3d
000002b0: 6612 e83d 14da 12be 9d25 853e b9ee 503e
000002c0: ad9d ef3d 35fd edbc 5ef0 67be b08a 59be
000002d0: f868 f1be bcf7 753e 839b 53bc ebe0 ecbd
000002e0: 941a fb3e 40e0 273e b7a0 6abe 7ab1 acbd
000002f0: cf50 9c3e 87d7 043e aaf7 b83e 7ba4 da3d
00000300: b140 563e 5d50 dcbe f3f8 7c3e 3aaf 9c3e
00000310: 7bb0 f13c e029 d23e fcf1 c83e ea38 77bb
00000320: b36b 03bf 1b70 2cbd cfaa cf3e a327 5cbe
00000330: a67f 02be 9715 4b3e c07c 39be 21e9 983e
00000340: 19d3 913d c560 383e 258c 19bf b444 00be
00000350: b54a 563d 862e f93d cc99 bf3e f0e4 e5be
00000360: d739 d63d 381e 0a3f 78bf b63e fbc9 02be
00000370: 2c6c 313e fe0e 493d de11 3fbe 3c0a c93e
00000380: 293b e53e 579b 933e f9af 633e e150 f5bd
00000390: 363a 4bbd 3384 a2bd c491 083e e020 0b3f
000003a0: 9179 4f3d 6466 8b3d c066 883e 0c94 aebe
000003b0: ad16 223e 6246 fb3d d60f 63be c0d2 7ebe
000003c0: 2dc2 46be 38b7 d23e a0b3 d6bd 24c6 793e
000003d0: a850 6e3c 244c 8c3d 08af 88bd 79e9 663c
000003e0: 445b f8bc 48b7 53be a630 6fbe e10a d73d
000003f0: b1aa 89bd 4e72 acbe 4369 72be ca1b cd3e

network_body._body_endoder.seq_layers.6.bias f4 [64]
-0.20972325 0.20959412 -0.41410843 -0.3280296 0.06612867 -0.24217929 -0.34637776 -0.39867985
-0.13320172 -0.06558094 0.015892623 -0.2768766 -0.064137235 -0.43220064 -0.16874862 0.115149155
-0.530344 -0.3545419 -0.10871988 -0.33029658 0.15534732 0.07341698 -0.19805472 -0.37675837
-0.3164891 -0.25895366 0.1436924 -0.16368298 -0.2179176 0.12227981 0.24750535 0.0434293
-0.56583494 0.00024850818 -0.28608543 0.014795844 0.18715379 0.029603584 0.19967633 -0.02751453
0.24222948 -0.21779254 -0.3834077 0.111421816 0.07568334 -0.58441055 -0.0618973 -0.030989267
-0.21036744 -0.06603127 0.30913836 0.028395941 -0.088168465 -0.23841599 -0.35930988 -0.042704068
-0.2924408 -0.20016794 -0.2357514 -0.28380325 0.15160833 -0.16896996 0.094181806 -0.41268373
00000000: b1c1 56be d79f 563e 0506 d4be 7ff3 a7be
00000010: 786e 873d d9fd 77be 6d58 b1be c41f ccbe
00000020: 0866 08be 4d4f 86bd 3f31 823c c5c2 8dbe
00000030: 625a 83bd 6749 ddbe 70cc 2cbe 52d3 eb3d
00000040: a0c4 07bf 8486 b5be 87a8 debd a21c a9be
00000050: 5e13 1f3e a45b 963d dbce 4abe 79e6 c0be
00000060: dc0a a2be 9395 84be 1a24 133e 839c 27be
00000070: cb25 5fbe d66d fa3d 0b72 7d3e ece2 313d
00000080: 8fda 10bf 344a 8239 ca79 92be 456a 723c
00000090: 3ea5 3f3e 3783 f23c f477 4c3e 2766 e1bc
000000a0: 010b 783e 0205 5fbe 044e c4be 1f31 e43d
000000b0: deff 9a3d ee9b 15bf 0688 7dbd 34dd fdbc
000000c0: 906a 57be 673b 87bd 6247 9e3e 9b9e e83c
000000d0: ab91 b4bd 5223 74be 77f7 b7be 76ea 2ebd
000000e0: cdba 95be d3f8 4cbe d168 71be a94e 91be
000000f0: 373f 1b3e 7606 2dbe 64e2 c03d 484b d3be

network_body._body_endoder.seq_layers.8.weight f4 [64, 64]
-0.053497285 0.060166977 -0.15312415 0.14082497 -0.20934494 -0.4839611 0.13104798 0.193437
-0.3626301 -0.0007122076 0.017023567 0.08568163 0.20639457 -0.65038705 -0.09530852 0.37064448
-0.01140024 -0.097528584 -0.28026444 0.10492659 -0.27271232 0.20962553 0.25895965 -0.08830417
0.028613305 0.07852174 0.08343306 0.40382704 -0.40442508 -0.2134726 0.3414098 0.07415081
0.121782154 0.31193793 -0.23478855 0.23007393 -0.062001564 -0.053486064 0.119377196 -0.13783973
-0.52844644 0.020667346 -0.19429201 0.0033218595 -0.28637347 -0.17578235 0.14829376 -0.676896
-0.11329988 0.1416953 -0.06962454 -0.093807824 -0.2635776 -0.111633845 0.33033237 0.099373974
-0.31918907 -0.37477264 0.2284456 0.047731947 0.07279162 -0.19530825 -0.01409146 0.19724838
-0.01151586 0.057826854 0.40327793 0.03655453 -0.15519182 -0.020742226 0.014919326 0.0985896
0.12059248 -0.30549213 0.01894797 0.3386384 -0.106803335 -0.1422052 -0.13903645 0.17017494
-0.17003237 0.5388743 -0.50669825 -0.2433595 -0.43086252 0.060881324 0.35517335 -0.10010391
0.24737304 0.045152377 0.30989873 0.23361194 0.10220062 -0.32584524 -0.35414734 -0.36196584
-0.53173935 -0.045283977 -0.007387367 -0.42736042 0.3617575 0.26768994 -0.4563636 0.29892528
0.19870856 -0.05314662 0.11793543 0.082246654 -0.012833917 -0.09807643 -0.26214123 0.008819344
0.28999183 -0.10300491 -0.4574101 0.1567996 -0.21504594 0.08502902 0.11611725 0.13821268
0.11117587 -0.7114735 -0.03182874 0.09042937 -0.1478682 -0.3952054 -0.15553866 -0.036717094
0.22320661 -0.15657064 -0.19757406 -0.30509138 0.34314987 0.48597002 -0.32478538 -0.12887157
-0.12610929 0.12452657 0.09193684 -0.26274785 0.08149334 -0.06970108 0.1592803 -0.19081423
-0.42713502 0.45295686 -0.15941536 -0.40953586 0.03139984 -0.4805795 -0.78966427 0.26808575
0.38438335 -0.4327511 0.40634078 -0.36911252 -0.16991325 0.27046752 -0.035850596 -0.67064846
-0.06857749 0.19301862 -0.2446653 0.041920677 -0.5602948 -0.3316031 -0.2454609 0.16705261
-0.28249708 -0.30770597 0.08837486 -0.28963053 -0.24309178 -0.14748989 -0.13084218 -0.40231723
-0.4090808 0.24587172 -0.10780983 0.20727783 -0.2640216 -0.3705018 -0.10702427 0.29665482
0.049373887 -0.08838859 -0.13574082 0.16622598 -0.3719638 0.14722721 -0.39518625 0.31774113
0.014903251 0.13370827 -0.23013602 -0.11049894 -0.10311737 -0.18618022 -0.058808018 0.17542003
-0.009700663 -0.16243455 -0.021988587 -0.14991507 0.108834006 -0.37932947 -0.19578318 0.18572237
-0.13018334 0.4182221 -0.54591453 -0.1851671 0.18263587 0.05768506 0.36177155 0.11047469
0.12901917 -0.033670887 0.0010254156 -0.1162533 0.074379094 0.10956543 -0.705654 -0.010690194
0.051434334 -0.046873372 -0.35951513 -0.44831812 -0.54760534 0.18002614 -0.118128166 0.049865346
-0.12525773 -0.37001854 -0.25790933 -0.6271172 0.29956952 -0.3758925 -0.76045024 -0.016434014
0.016041396 -0.103471 -0.48260027 0.120133676 -0.6052312 -0.19463536 -0.4698801 0.05918032
-0.94062454 0.07114835 -0.12222621 -0.2123905 0.07226826 -0.056483775 -0.2925693 0.17935997
00000000: f81f 5bbd a671 763d 94cc 1cbe 6c34 103e
00000010: 855e 56be c0c9 f7be 7131 063e 5914 463e
00000020: a7aa b9be 71b3 3aba 0275 8b3c da79 af3d
00000030: 1959 533e c47f 26bf 1d31 c3bd 1dc5 bd3e
00000040: 12c8 3abc 11bd c7bd d27e 8fbe c1e3 d63d
00000050: f3a0 8bbe 13a8 563e 5c96 843e d1d8 b4bd
00000060: 7366 ea3c 02d0 a03d f4de aa3d 6bc2 ce3e
00000070: ce10 cfbe 9098 5abe 44cd ae3e 61dc 973d
00000080: ec68 f93d 54b6 9f3e 696c 70be 8098 6b3e
00000090: 5af5 7dbd 3414 5bbd 087c f43d dc25 0dbe
000000a0: 4448 07bf 914e a93c 7cf4 46be 8eb3 593b
000000b0: 8b9f 92be 4a00 34be 52da 173e 0e49 2dbf
000000c0: c409 e8bd 9318 113e 5097 8ebd 511e c0bd
000000d0: a5f3 86be 49a0 e4bd 5321 a93e 9584 cb3d
000000e0: c06c a3be 33e2 bfbe a5ed 693e 9382 433d
000000f0: c613 953d e3fe 47be dedf 66bc 7bfb 493e
00000100: 05ad 3cbc dadb 6c3d 727a ce3e 34ba 153d
00000110: 9bea 1ebe 9aeb a9bc 3070 743c 58e9 c93d
00000120: 31f9 f63d 7769 9cbe c638 9b3c 0362 ad3e
00000130: b5bb dabd 3d9e 11be 925f 0ebe 5742 2e3e
00000140: f71c 2ebe abf3 093f fab6 01bf 3c33 79be
00000150: 039a dcbe b25e 793d 48d9 b53e 4703 cdbd
00000160: 5c4f 7d3e b3f1 383d 0cab 9e3e f837 6f3e
00000170: 8f4e d13d 30d5 a6be cd52 b5be 9653 b9be
00000180: 1220 08bf b17b 39bd ba11 f2bb fcce dabe
00000190: 4738 b93e a80e 893e 7da8 e9be bc0c 993e
000001a0: 427a 4b3e 45b0 59bd 2188 f13d ef70 a83d
000001b0: 5945 52bc 4cdc c8bd 6037 86be 037f 103c
000001c0: cf79 943e 3df4 d2bd a831 eabe 1390 203e
000001d0: 0135 5cbe b223 ae3d e1ce ed3d a087 0d3e
000001e0: 2db0 e33d 2123 36bf da5e 02bd 0933 b93d
000001f0: c36a 17be 5d58 cabe 8745 1fbe aa64 16bd
00000200: 4690 643e 0e54 20be db50 4abe f034 9cbe
00000210: 57b1 af3e 10d1 f83e 454a a6be e9f6 03be
00000220: cb22 01be c907 ff3d 6249 bc3d e386 86be
00000230: fbe5 a63d 71bf 8ebd 601a 233e ce64 43be
00000240: 71b1 dabe f6e9 e73e c83d 23be afae d1be
00000250: 1e9d 003d 840e f6be 7027 4abf 8942 893e
00000260: e5cd c43e 8d91 ddbe e60b d03e 51fc bcbe
00000270: bdfd 2dbe b87a 8a3e 13d8 12bd 9eaf 2bbf
00000280: 5b72 8cbd aca6 453e 8a89 7abe 04b5 2b3d
00000290: 7b6f 0fbf e2c7 a9be 1a5a 7bbe d70f 2b3e
000002a0: 75a3 90be a38b 9dbe e1fd b43d 744a 94be
000002b0: 0ded 78be 9707 17be 7efb 05be 86fc cdbe
000002c0: 0a73 d1be ccc5 7b3e 66cb dcbd a440 543e
000002d0: d72d 87be 69b2 bdbe 8a2f dbbd 24e3 973e
000002e0: 463c 4a3d 1405 b5bd a4ff 0abe 2537 2a3e
000002f0: 0a72 bebe bbc2 163e da55 cabe f7ae a23e
00000300: c42c 743c d2ea 083e c7a8 6bbe 454d e2bd
00000310: 332f d3bd 07a6 3ebe ade0 70bd 4fa1 333e
00000320: 88ef 1ebc 3e55 26be 6921 b4bc 5683 19be
00000330: 5de4 de3d 7937 c2be 637b 48be 012e 3e3e
00000340: c84e 05be 3521 d63e 0ec1 0bbf 729c 3dbe
00000350: e604 3b3e 2b47 6c3d 1f3a b93e 8e40 e23d
00000360: 9a1d 043e 7cea 09bd 3d67 863a 3616 eebd
00000370: 1154 983d d763 e03d bea5 34bf ec25 2fbc
00000380: cfac 523d 4bfe 3fbd 5e12 b8be f489 e5be
00000390: dd2f 0cbf c658 383e 2eed f1bd 9b3f 4c3d
000003a0: 9043 00be 1273 bdbe b10c 84be c18a 20bf
000003b0: 2d61 993e fb74 c0be deac 42bf a0a0 86bc
000003c0: 3f69 833c 9be8 d3bd 6217 f7be a508 f63d
000003d0: 6ff0 1abf 7e4e 47be 2094 f0be 1067 723d
000003e0: c5cc 70bf 3ab6 913d bc51 fabd e57c 59be
000003f0: 6201 943d 885b 67bd a5cb 95be 24aa 373e

network_body._body_endoder.seq_layers.8.bias f4 [64]
0.05640979 -0.33952066 0.01632941 -0.16281588 -0.0371189 -0.24570814 -0.08293499 -0.42348093
-0.2514488 -0.05396205 -0.24691427 0.19812386 -0.06379722 0.108567156 -0.44807655 0.17850603
0.30355582 0.16244932 -0.25735113 -0.09357684 -0.049659286 -0.13025011 0.27604115 -0.08523739
0.11336927 -0.15209794 -0.22769812 0.17670558 -0.40012354 -0.088961 -0.13723077 0.03236324
0.23762856 0.12132101 -0.0057770456 0.044110976 0.028718248 -0.15645939 0.04696399 -0.5956579
-0.076022215 -0.23167299 -0.20580739 -0.5177972 -0.102784865 -0.12810285 -0.118754156 0.17081551
-0.119211696 -0.12544096 0.07112094 -0.24843106 -0.2809505 0.28942767 -0.19755556 -0.08803862
0.09733382 -0.25328228 -0.39432737 0.0012304253 -0.35313368 -0.058943484 0.11131439 -0.2627867
00000000: f40d 673d a7d5 adbe 41c5 853c 35b9 26be
00000010: fd09 18bd ea9a 7bbe d2d9 a9bd 7ed2 d8be
00000020: e6bd 80be 4f07 5dbd 18d7 7cbe fbe0 4a3e
00000030: 1ea8 82bd 7558 de3d 4a6a e5be 49ca 363e
00000040: ab6b 9b3e 1d59 263e 87c3 83be 37a5 bfbd
00000050: 8967 4bbd 4960 05be 4455 8d3e f190 aebd
00000060: 262e e83d 90bf 1bbe b229 69be 4ff2 343e
00000070: fedc ccbe 2f31 b6bd 3986 0cbe 518f 043d
00000080: e754 733e 2677 f83d 5f4d bdbb b6ad 343d
00000090: 8842 eb3c e436 20be 505d 403d 097d 18bf
000000a0: 89b1 9bbd af3b 6dbe 2cbf 52be 5b8e 04bf
000000b0: df80 d2bd 652d 03be 6135 f3bd 43ea 2e3e
000000c0: 4325 f4bd 9873 00be dba7 913d b664 7ebe
000000d0: bed8 8fbe dd2f 943e 014c 4abe 984d b4bd
000000e0: f456 c73d 37ae 81be 47e5 c9be 3946 a13a
000000f0: f0cd b4be b96e 71bd cdf8 e33d fa8b 86be

network_body._body_endoder.seq_layers.10.weight f4 [64, 64]
-0.17673348 0.022990726 0.085064985 -0.08496805 -0.046236794 -0.64923805 -0.33079022 0.29969263
-0.004421641 -0.26641917 -0.43203816 -0.072620384 -0.6406801 -0.5733914 -0.31171107 0.03019702
-0.1471856 0.030751606 0.117714696 -0.10754336 -0.22524866 -0.44311112 -0.42040548 0.36247602
0.47810784 -0.20323287 -0.010648986 -0.1766329 -0.036773786 0.31223828 0.17328735 -0.40480986
-0.30419233 -0.018758785 0.32084566 0.20542058 -0.3036382 0.2857898 -0.67067194 -0.16285758
-0.10788624 -0.060225945 -0.12036956 -0.12278873 0.31417376 -0.46665886 -0.38693044 -0.09295504
-0.4891579 -0.35120127 -0.013887612 -0.24376206 0.11751643 0.10850103 -0.32666716 -0.06319751
-0.34554735 0.111526854 -0.24020854 -0.7637862 0.2010724 -0.1497687 -0.17264761 0.19161013
-0.24148306 -0.26195592 0.21862338 -0.053864878 -0.5756912 0.121414445 0.37576938 0.03377706
-0.12663469 0.4410133 -0.06370851 0.1543467 -0.34662563 -0.18827166 -0.29943696 -0.44308883
-0.19909374 -0.18204947 -0.006568101 -0.07189235 -0.32184288 -0.5425472 0.30127287 -0.17843018
-0.61594564 -0.043259233 -0.41395286 -0.29799905 -0.32103005 -0.29062527 0.049784306 0.13948783
0.22309744 -0.217504 0.30573004 -0.22341996 0.26222104 -0.08501203 -0.6505911 -0.08977609
-0.79737014 0.09567854 -0.009385899 -0.49226132 0.11480686 -0.36347347 -0.42878568 0.19284756
-0.23516382 0.058331516 -0.11933713 -0.26788074 -0.0754844 -0.04817563 0.3712611 0.26319072
0.411042 0.24885963 -0.48359412 -0.27106827 -0.56510365 0.076695256 0.24813174 -0.22852153
-0.10975478 -0.114602014 -0.25330794 0.17525664 -0.1273384 -0.026041318 -0.47619024 0.0843646
-0.480662 0.35066092 -0.29456887 -0.44205853 -0.19016781 0.15844381 0.17252783 -0.5704933
-0.0728036 0.06968335 0.14766209 0.23228863 -0.3841829 -0.27178818 0.012279274 -0.054632045
-0.06304094 -0.30183122 -0.2761186 0.06441741 -0.44807392 0.48746502 -0.20652477 -0.60713863
0.09302812 -0.8726455 -0.33543086 -0.8311107 -0.45651096 -0.36958122 -0.1740194 -0.5040707
0.27715763 -0.015327178 -0.21369915 -0.38740852 -0.2059474 -0.107040405 -0.50509626 -0.11895859
-0.46309087 -0.25283325 -1.0494444 -0.7078667 0.0015401586 0.26071447 -0.060021378 -0.61904955
-0.32018474 0.04214321 -0.4935513 0.13861543 -0.11779354 -0.1698981 -0.0597232 -0.18942592
-0.55306876 -0.29035044 -0.27149805 0.025702856 0.22298744 -0.12797783 0.2277771 0.2555282
0.44823208 -0.27383766 0.33423704 -0.37919116 -0.09999386 -0.4528394 -0.14378062 -0.1934268
-0.08357496 -0.30748534 0.117325604 0.14078385 -0.282197 -0.11504294 -0.105916254 -0.007701267
0.16355178 0.12454846 0.18352538 -0.24593379 -0.3210415 -0.2665436 -0.19721694 0.3357481
-0.07716143 0.07589146 -0.18512496 -0.6018169 0.13043548 0.083931714 -0.6695989 -0.002300108
-0.8510458 0.2628203 -0.08986595 0.315106 0.3026286 0.23579122 0.10463491 0.14252278
0.16600347 0.063028224 0.16153069 -0.08690328 -0.04046307 -0.37174803 -0.10468882 -0.08539284
-0.16216786 -0.13747661 -0.05994106 -0.17590302 -0.021971446 -0.08599918 -0.16628249 -0.14718589
00000000: 9ff9 34be 0c57 bc3c 8d36 ae3d bb03 aebd
00000010: cb62 3dbd 7734 26bf 565d a9be 5071 993e
00000020: 6ae3 90bb 1868 88be 1b34 ddbe ffb9 94bd
00000030: 9c03 24bf c7c9 12bf 9898 9fbe be5f f73c
00000040: d2b7 16be cbea fb3c 6714 f13d b13f dcbd
00000050: 96a7 66be 76df e2be 633f d7be 7596 b93e
00000060: 8dca f43e 471c 50be 1679 2ebc 41df 34be
00000070: 1ca0 16bd b2dd 9f3e 3d72 313e 3d43 cfbe
00000080: 19bf 9bbe 06ac 99bc e245 a43e c659 523e
00000090: 7776 9bbe 0a53 923e 28b1 2bbf 23c4 26be
000000a0: 76f3 dcbd 7baf 76bd 5184 f6bd a878 fbbd
000000b0: 62db a03e e9ed eebe bf1b c6be 365f bebd
000000c0: e772 fabe a7d0 b3be de88 63bc c39c 79be
000000d0: 74ac f03d ca35 de3d eb40 a7be b26d 81bd
000000e0: 95eb b0be 3168 e43d 3af9 75be 7e87 43bf
000000f0: ece5 4d3e f75c 19be 89ca 30be 7235 443e
00000100: 5647 77be 161f 86be cfde 5f3e 6ba1 5cbd
00000110: 8060 13bf 23a8 f83d d864 c03e d159 0a3d
00000120: 86ac 01be 7fcc e13e 9b79 82bd 100d 1e3e
00000130: ea78 b1be 49ca 40be cd4f 99be 8adc e2be
00000140: 3bdf 4bbe 2d6b 3abe 3939 d7bb 4c3c 93bd
00000150: 97c8 a4be 60e4 0abf 7040 9a3e 67b6 36be
00000160: 9dae 1dbf 9830 31bd a1f1 d3be 5593 98be
00000170: 0d5e a4be d6cc 94be a1ea 4b3d e6d5 0e3e
00000180: a873 643e 5eb9 5ebe a688 9c3e 34c8 64be
00000190: d641 863e ca1a aebd 238d 26bf 87dc b7bd
000001a0: 7320 4cbf 1cf3 c33d 50c7 19bc ad09 fcbe
000001b0: dc1f eb3d 3219 babe cc89 dbbe d579 453e
000001c0: c9ce 70be 07ed 6e3d 0667 f4bd aa27 89be
000001d0: 9197 9abd cf53 45bd ef15 be3e efc0 863e
000001e0: 1974 d23e 0fd5 7e3e a699 f7be 76c9 8abe
000001f0: a2aa 10bf 6712 9d3d 3f16 7e3e 8c01 6abe
00000200: 1dc7 e0bd 76b4 eabd 94b1 81be 7a76 333e
00000210: ff64 02be 9a54 d5bc 35cf f3be 59c7 ac3d
00000220: 5419 f6be d489 b33e bbd1 96be 7f55 e2be
00000230: 5abb 42be 183f 223e 23ab 303e d90b 12bf
00000240: 0e1a 95bd 25b6 8e3d bb34 173e 12dd 6d3e
00000250: 9fb3 c4be d227 8bbe 022f 493c dac5 5fbd
00000260: 9c1b 81bd 9f89 9abe 6b5f 8dbe 46ed 833d
00000270: f269 e5be 0495 f93e 3b7b 53be 706d 1bbf
00000280: 8785 be3d b265 5fbf 98bd abbe acc3 54bf
00000290: cebb e9be c039 bdbe 2432 32be c70a 01bf
000002a0: 9be7 8d3e d81e 7bbc f3d3 5abe 695a c6be
000002b0: e0e3 52be 0038 dbbd fd4d 01bf 90a0 f3bd
000002c0: 3f1a edbe 5c73 81be 3254 86bf c136 35bf
000002d0: 26df c93a 5e7c 853e fad8 75bd 087a 1ebf
000002e0: 41ef a3be 5c9e 2c3d c2b2 fcbe 34f1 0d3e
000002f0: bd3d f1bd c4f9 2dbe 50a0 74bd def8 41be
00000300: ea95 0dbf d0a8 94be cb01 8bbe cc8e d23c
00000310: d256 643e 9f0c 03be 663e 693e 98d4 823e
00000320: ad7e e53e 7334 8cbe 1e21 ab3e 5825 c2be
00000330: 95c9 ccbd 91da e7be 3a3b 13be ad11 46be
00000340: 5929 abbd b86e 9dbe 6848 f03d a429 103e
00000350: 207c 90be a29b ebbd 9fea d8bd e95a fcbb
00000360: 1e7a 273e 4313 ff3d 14ee 3b3e 11d6 7bbe
00000370: 8d5f a4be 6778 88be 3df3 49be 2de7 ab3e
00000380: d006 9ebd fb6c 9b3d 6691 3dbe ac10 1abf
00000390: e190 053e 64e4 ab3d d56a 2bbf 69bd 16bb
000003a0: 23de 59bf 6290 863e a40b b8bd 9355 a13e
000003b0: 23f2 9a3e 4173 713e d44a d63d 7ef1 113e
000003c0: d0fc 293e f114 813d 4d68 253e 59fa b1bd
000003d0: 9bbc 25bd c255 bebe 1867 d6bd 71e2 aebd
000003e0: 550f 26be abc6 0cbe c284 75bd ec1f 34be
000003f0: 76fd b3bc 5720 b0bd f545 2abe e6b7 16be

network_body._body_endoder.seq_layers.10.bias f4 [64]
-0.11985965 -0.00999224 -0.02745977 -0.25623554 -0.14891544 0.055293743 -0.14924058 -0.21952221
0.011743348 -0.27445433 0.0125834 -0.22177203 -0.17544873 -0.06708537 -0.22164868 -0.14710599
0.33763984 0.053981505 -0.23780097 0.023435246 -0.12528579 -0.17342252 0.08875585 -0.036718234
-0.28966314 -0.111361206 0.04926725 0.017500674 -0.07004354 0.01984247 -0.024346035 0.11709201
-0.20031871 0.02663316 0.0747106 -0.099734865 -0.02778011 -0.30094138 0.09647042 -0.21074606
0.2373585 0.11465347 -0.1596447 -0.29989535 -0.021161566 -0.036547687 -0.18058655 -0.38035074
-0.024777422 -0.43891177 -0.068319626 0.022732738 -0.091427 0.0026421926 -0.13726537 -0.042021636
0.13495807 -0.39508924 -0.002674041 -0.0064001945 -0.06242062 -0.13360436 -0.09967358 0.07961026
00000000: fa78 f5bd 7eb6 23bc 50f3 e0bc 4e31 83be
00000010: 4a7d 18be b17b 623d 86d2 18be 6eca 60be
00000020: 2c67 403c 4785 8cbe 9b2a 4e3c 3518 63be
00000030: d5a8 33be 0e64 89bd dff7 62be f4a2 16be
00000040: 21df ac3e b61b 5d3d 1982 73be 46fb bf3c
00000050: eb4a 00be ac95 31be a1c5 b53d dc65 16bd
00000060: ba4e 94be 5811 e4bd 75cc 493d 935d 8f3c
00000070: fd72 8fbd ad8c a23c 5671 c7bc f0cd ef3d
00000080: 5920 4dbe c92d da3c df01 993d cb41 ccbd
00000090: 1d93 e3bc fd14 9abe 4992 c53d d1cd 57be
000000a0: 1b0e 733e 70cf ea3d e679 23be e28b 99be
000000b0: 055b adbc 07b3 15bd aeeb 38be 55bd c2be
000000c0: 05fa cabc 0bb9 e0be 29eb 8bbd 023a ba3c
000000d0: 143e bbbd a328 2d3b 4b8f 0cbe e11e 2cbd
000000e0: 7332 0a3e 2349 cabe f73e 2fbb b9b8 d1bb
000000f0: c4ac 7fbd 95cf 08be a921 ccbd b40a a33d
