Assets/Scenes/nouse/ML/Model/My Behavior.onnx (onnx, 88701 bytes, 10 tensors)

discrete_act_size_vector f4 [1, 2]
00000000: 0000 0040 0000 2041
2.0 10.0

network_body._body_endoder.seq_layers.0.weight f4 [128, 12]
00000000: b351 e03d ea6c fd3d e52f 023e bc20 37bd
00000010: 21bb 6dbe a519 e4be ba61 443e 9394 6fbe
00000020: acc0 063d 5f4b 513f 12dd 0bbf 95ab 993e
00000030: 2883 25be b805 06bd c0d3 4d3e 712a 3bbe
00000040: dd93 0abe 789a 61be e1e4 84be 6619 6ebe
00000050: 720f 97bb 46bc ce3e 9ad2 abbd 846c eabd
00000060: 9d07 053f 44d5 81be dc56 41bf 0e05 b0bc
00000070: 1873 103e 6e22 ea3e 6e13 b6be d799 c9be
00000080: 59a6 57bd b1a6 f53d 34ed 8abe 600c 523e
00000090: 72ca 8dbe eeb0 c5be 70ad f4be 11c0 5d3e
000000a0: 3d68 bbbd f4e8 fa3d 4f98 943e 4ec1 63be
000000b0: 8b52 cb3d b2ec 09bf 8730 85be aee2 9abc
000000c0: 0c30 5fbe bd66 703d 014d a23e 9693 a53e
000000d0: a3fb 81be 87eb c2be 6923 263a 2c82 d13e
000000e0: 57c0 0a3e d226 513e 8af0 6b3d b463 17bf
000000f0: f73c 99be e336 3d3d dc51 a9bd 3dfc 4d3f
00000100: e3b5 82bd 8726 90bd 8a62 8d3d b63f 89be
00000110: 3771 aabe 807f 92bd f603 4cbe 2f14 4a3e
00000120: ce5c 87bd 5074 e03e da39 9cbe 17c5 423c
00000130: 3a12 68be 82c6 99be f4b3 b43c e73e 8abe
00000140: c120 8ebe b053 c73e 8e8f cc3d e73a 183c
00000150: ced1 a4be 9bb1 ac3e bbda 933e a390 ec3d
00000160: 9a90 1bbe 8948 c6bd b87c 00be 2fcd f1bc
00000170: 8740 1dbe 208b cc3e 6368 d3bd 2d27 ccbe
00000180: e340 25be 27e5 aebc 0d1c 883e 3621 3dbe
00000190: 7a1c 153e 578c 673e 92b2 a83e e419 e13e
000001a0: c5a6 05bc 19b2 98be f655 453c 5bcb 953e
000001b0: 8e8e 833e 468d fc3d ff4b 90be 0ee1 393e
000001c0: e04b c03e 9322 663e 9e35 d3bb 3107 d2bb
000001d0: 1b1a 89bd f1d8 4a3e c134 96be c40c 9fbe
000001e0: c2da a0be 36be 593d 6ced eebe f092 453e
000001f0: 15d3 eb3e f9ef b83e 2af4 46be 48d8 8f3e
00000200: 470c c8bd 57b1 88be 8cdb 983d 7202 aebd
00000210: ffcb 71be 06b4 2a3e 88b4 ebbd 6e25 b33e
00000220: 9e39 763e 30b5 b4bc 454f 46bd 1707 a83d
00000230: 57c3 25be a0ff 49be a29c 183e 4a71 fb3c
00000240: 95c7 fb3d 4944 29be 3055 bdbd 9ddd 44be
00000250: 872b 633e 41bd ab3d 891f ac3d d659 a4bd
00000260: 4868 1e3e 26c2 703e 0fcd be3d 086a bd3e
00000270: 1257 97be 8087 d7be 9224 883e b2ed 27be
00000280: 39e4 643d 5621 c6be 3492 4bbe 0571 bc3e
00000290: d640 34be 1b48 c63e ae45 cb3d 4bcf 8ebe
000002a0: af47 debe a119 1dbd 4da9 8d3e 9f55 54bd
000002b0: bb7e e23c 3aa9 773e aaa6 623d 0c67 933e
000002c0: 0077 1abe e43c 1dbe 00f0 823d 2244 9b3e
000002d0: e12b ebbd 7110 79bd 00d5 b13d 245a 5cbc
000002e0: 8fd7 47bd afba 833e 6486 4b3e 9414 1e3d
000002f0: 4d86 24be d5a0 ec3e ba98 b0be 5cb0 4a3c
00000300: 8bb4 15bd 021b 0cbe 505a 1a3d 3744 b13d
00000310: c391 11bc 9b78 663d 3cca febd b1fe 83be
00000320: f692 1a3e b46a 86be a3c9 e93e d50f c43e
00000330: 46e5 51bd c2ea e3be f8c1 2c3d bd09 0bbf
00000340: c968 903d 6061 363e 0f9f d03e 7443 81be
00000350: 203e 42be 0e14 cb3d cf1d 1e3f f3bc 8dbb
00000360: 161d 06be a63e b13e f97b dabe fd76 f3be
00000370: 9b85 e23d 26b1 0bbe 16aa 5a3e 7f6a 06bc
00000380: 143b 923e c191 4bbd 4a40 89bd c8ee a23e
00000390: 9fba a4be 7162 b2bd 64e1 84be e4f3 82be
000003a0: 5104 9bbe 8240 083e 1837 89be 1528 36be
000003b0: 6021 d73e d726 8ebd 13b9 433d 3e05 533e
000003c0: 13ca 35bd 0e93 0abf baf7 bfbd 35e5 0cbe
000003d0: c91a 5f3d 4877 903e 5356 dabd c16f 033e
000003e0: c4d8 dc3d 1a06 a3be 6dcd b93c 0ea7 9abe
000003f0: 6cae 02be c333 e53e 5fa2 7fbe 8289 953d
0.10953083 0.12374289 0.12713583 -0.044708952 -0.23215915 -0.44550815 0.19177905 -0.2339652
0.03289859 0.8175563 -0.546342 0.3001372 -0.16163313 -0.032720298 0.20100307 -0.18277909
-0.13532968 -0.22031581 -0.2595587 -0.23251876 -0.0046099955 0.40378016 -0.083897784 -0.11446479
0.5196474 -0.2535802 -0.7552316 -0.021486785 0.14106405 0.45729393 -0.355617 -0.39375183
-0.052648876 0.119946845 -0.27134097 0.20512533 -0.27693516 -0.3861155 -0.47788572 0.21655299
-0.09150741 0.122514635 0.29022452 -0.22241709 0.09927853 -0.53876793 -0.26013586 -0.018906917
-0.21795672 0.05869173 0.31699374 0.32339162 -0.25387296 -0.38070318 0.0006337674 0.40919626
0.13549934 0.20424965 0.057602443 -0.5913651 -0.29929325 0.046194922 -0.082675666 0.8046301
-0.063823484 -0.070385985 0.069035605 -0.2680642 -0.332895 -0.07153225 -0.19923386 0.19734262
-0.06609498 0.4383874 -0.30512887 0.01188781 -0.22663203 -0.30034262 0.022058465 -0.27001116
-0.27759364 0.38931036 0.099883184 0.009291387 -0.32191318 0.33729252 0.28877816 0.11551025
-0.1519188 -0.09681804 -0.12547576 -0.029516784 -0.15356646 0.39949894 -0.103226446 -0.3987364
-0.16138034 -0.021349503 0.265839 -0.184697 0.14561644 0.22612129 0.32948738 0.43965065
-0.008157437 -0.29823378 0.0120444205 0.2925671 0.25694698 0.12331633 -0.2818298 0.18152258
0.37557888 0.22474127 -0.0064456007 -0.0064095487 -0.06694432 0.19809319 -0.29337123 -0.31064427
-0.314169 0.053159915 -0.46665514 0.19294333 0.4605948 0.36120585 -0.19429079 0.28094697
-0.09767967 -0.266978 0.0746375 -0.0849656 -0.23612975 0.16670236 -0.11509043 0.34989494
0.24045417 -0.022059053 -0.04841544 0.08204477 -0.16187797 -0.1972642 0.149035 0.030693669
0.122939266 -0.16529955 -0.09244764 -0.19225164 0.22184573 0.08385707 0.08404452 -0.08024947
0.15469468 0.23511562 0.093164556 0.36994958 -0.29558617 -0.42095566 0.265904 -0.16399267
0.055881713 -0.38697308 -0.19879991 0.36804977 -0.17602858 0.38726887 0.099254 -0.27892527
-0.43414065 -0.03835452 0.2766823 -0.051839467 0.02764832 0.24185649 0.055334724 0.28789556
-0.15084457 -0.15355259 0.063934326 0.3032542 -0.114829786 -0.060806695 0.08683205 -0.013449226
-0.048789557 0.25728366 0.19875485 0.038593844 -0.16066857 0.46216455 -0.3449152 0.012371149
-0.036549132 -0.13682178 0.037683785 0.08655589 -0.00888485 0.056267362 -0.12440917 -0.25780252
0.15095124 -0.26253283 0.4566165 0.3829333 -0.051244043 -0.44515043 0.04217717 -0.54311734
0.07051236 0.17810583 0.40746352 -0.25246775 -0.18969011 0.099159345 0.61764234 -0.004325503
-0.13097033 0.3461811 -0.4267271 -0.47551718 0.110606395 -0.13641796 0.21353945 -0.008204102
0.28560698 -0.04969955 -0.06701715 0.318228 -0.3217363 -0.087101825 -0.2595321 -0.255767
-0.3027673 0.13305858 -0.26799846 -0.17788728 0.4201765 -0.06941002 0.047783922 0.20607468
-0.044382166 -0.5413064 -0.09373422 -0.1375931 0.054468904 0.28216004 -0.10660996 0.128356
0.10783532 -0.31840593 0.022680962 -0.30205578 -0.12761849 0.44766054 -0.24964283 0.07301618

network_body._body_endoder.seq_layers.0.bias f4 [128]
00000000: 2fe8 86bc f069 9eba fa9c 403c c170 37bc
00000010: 7465 7ebc 69ad 1abc dba4 893c 944a f83b
00000020: 44b7 f73a b367 71ba c836 363c 8103 23bc
00000030: 44b5 3cbc 8b3d 043c 1ad6 e0bb 527d 203c
00000040: 50df 2bbc bc86 30bc 1759 9a3b 22a0 353c
00000050: 784e 263c cf9f 3bbc 308c 1bbc 7082 033c
00000060: d6fc a9bb e9e6 2d3c 6725 7b3b 5ec0 8e3b
00000070: 5709 8ebc 0ffb 07bc 7a4e 463b 3bca 5f3c
00000080: c5d0 19bc c322 6e3c 091f 463b 1fdf d53b
00000090: a347 e73b 4738 05bb cbac 61bc fdf8 31bc
000000a0: 4de1 b93b 80e8 393c 1e52 483b 8cb3 f6bb
000000b0: 1c04 46bc 2884 e53b 29df 0fbb f404 763b
000000c0: 567e 4b3c 875d 96bb d7b2 f03b b875 7cbc
000000d0: d1cb c8bb 1458 e73a ece4 b3bb 7e93 363c
000000e0: efd2 91bb 7363 c63c c814 8e3b 4709 b5ba
000000f0: 2df6 2f3b 0537 203c 005e 3dbc 01d9 0cbb
00000100: c9da 61bc 10b3 9bbc 4f06 02bc e14c 00bb
00000110: 6dfa 323c c784 51bc d7c0 a5bb 32f2 83bc
00000120: c42f 10bc b9e1 36bb 4e72 633c edb6 6cbc
00000130: 3788 38bc dedd 123c a26e 563b d88c 02bd
00000140: cfe6 223c 26cf be3b 801f 9f37 cdf0 433c
00000150: 785a 0b3c 8755 9fbb b1c8 5a3b 6ff2 e0bb
00000160: 69c6 de3b e3c9 05bb 2ee3 b73b c3ba 003b
00000170: 1ef5 713b 0fc6 d3ba 3289 0fbc 3202 143c
00000180: 7ffd 613c b9a8 1b3a 5104 54bc 4c6d 15bc
00000190: 66c9 04bc 6d3a 5dbb abb5 09bc 934b 5b3b
000001a0: b268 cf3a 06ca 483b 055a d63b fd3c 4fba
000001b0: 3213 b9bb ee3f 84bc 279a 4e3c c737 f4bb
000001c0: 9efd 9d3b 0f00 e4bb d827 a93a f357 55bc
000001d0: dcc8 253c e763 c8bb 524a fcbb ee91 9d3a
000001e0: 91ef 393c d7f6 48bc 177c 28bc 9801 a03c
000001f0: 2923 033c 3706 aebb 6a54 563b 7957 2ebc
-0.016468136 -0.0012086015 0.011756176 -0.011196316 -0.015527118 -0.009440758 0.016802242 0.00757725
0.0018899222 -0.0009208873 0.011121459 -0.009949566 -0.0115178265 0.008071314 -0.0068614604 0.009795504
-0.010490254 -0.010774311 0.0047103274 0.011085542 0.010150544 -0.011451676 -0.0094938725 0.008026704
-0.005187611 0.010614135 0.0038321854 0.004356428 -0.017338438 -0.008299603 0.0030259178 0.013659055
-0.009388153 0.014534655 0.00302309 0.0065268422 0.0070581003 -0.0020327733 -0.013774107 -0.010862586
0.00567261 0.011346936 0.0030566524 -0.007528728 -0.012085941 0.0070042796 -0.0021953082 0.0037539573
0.012420258 -0.004588786 0.007345538 -0.015408926 -0.0061278124 0.0017650151 -0.005489936 0.011143563
-0.004450194 0.024217343 0.0043359734 -0.0013811969 0.0026849613 0.009778743 -0.011558056 -0.002149165
-0.013785073 -0.019006282 -0.007936074 -0.0019577073 0.010923964 -0.012788004 -0.0050583887 -0.016106699
-0.008800451 -0.0027905537 0.013882233 -0.01444791 -0.011262945 0.00896403 0.003271975 -0.0318726
0.009942724 0.005823034 1.8968945e-05 0.011959267 0.008505456 -0.0048624906 0.0033383782 -0.006864838
0.0067985547 -0.0020414523 0.0056117987 0.0019642569 0.0036919783 -0.0016157049 -0.008760737 0.0090337265
0.013793348 0.00059379224 -0.012940482 -0.009120297 -0.008104658 -0.0033756748 -0.008405129 0.0033461794
0.0015824048 0.0030637993 0.006541493 -0.00079055113 -0.00564804 -0.016143765 0.012609995 -0.0074529382
0.0048214933 -0.006958015 0.0012905551 -0.013021457 0.010118689 -0.006115425 -0.0076992894 0.001202164
0.011348621 -0.012265882 -0.010283492 0.01953201 0.008003988 -0.0053107995 0.0032704123 -0.010640972

network_body._body_endoder.seq_layers.2.weight f4 [128, 128]
00000000: 5341 4dbc 465d 8a3d 769c 263d e320 923b
00000010: ff3d 2dbd cdc7 893d b60e 213d a46a 123e
00000020: f887 ce3d c2b3 553d 7652 bbbd 6bf8 80bd
00000030: c37c 0fbd 0f0a 9e3d cd26 afbd 87a9 c43d
00000040: 0f22 c4bb 9eb6 3abd 187f 93bc 3808 a23c
00000050: b797 3d3d 1a79 03be e41f c7bd 0e9a 74bd
00000060: f5a5 343e 3889 1d3d 1930 a8bc f4fb cf3d
00000070: e57d 003d 5568 0d3d 5085 17bc 0a36 debd
00000080: dfc2 b5bd 1cc1 fdbc 7ea9 a9bc 81bd 75be
00000090: eebf 563d db92 ca3d f82e ecbd bd91 18bd
000000a0: c683 383d 364f 983d a46b b83d 0d7e 213d
000000b0: 9ab4 3ebe 4474 87bc 72e4 3c3c 622a 2e3d
000000c0: ca6a b63c 0836 f7bc 590d 7ebe d740 30be
000000d0: 16d3 d33d d7e9 edbb a7ae d73d 0c09 8b3c
000000e0: d7e7 b73c 226f 4ebd d9d4 71bd 4b4a 4ebb
000000f0: 2547 973d d3fd 2ebd 0c4e f03d ff22 853d
00000100: d37d 873d b571 3e3c 68b9 0c3c f165 87bd
00000110: 9eb9 a7bc 5e66 0cbd 71e1 e8bd 3bf1 07bc
00000120: d73d 0bbe 2c70 5dbd 4c02 cb3d 318f 1f3e
00000130: a32a 39be 4f31 813d 968e 2f3c 03e6 5fbe
00000140: 8fe4 9ebd d0d5 4b3d 3a92 8bbc 4847 313d
00000150: a119 c8bd 669d cebb 75c8 d9bd 372d 483c
00000160: 5365 673b c55c 58bd 19f9 f33c b33b e5bd
00000170: 6134 32bd c17a ec3c 42e8 1fbd ba7f a4bd
00000180: 0ca9 37bd e6d5 53bd e028 e83d 7280 033e
00000190: df63 4e3c df25 1c3e 054f 753d db41 28bb
000001a0: 7316 9fbd 0177 2c3c 7b59 ddbd 73f4 973d
000001b0: 4d50 ac3d 7e9b 833b 4524 4c3d 2019 eabd
000001c0: d5f4 8bbc c31f d23d 69da bbbc 9d44 11be
000001d0: 7854 a83c c8af e63d c29c 35bd 3d6b 9ebc
000001e0: 00a5 183d 30c0 803d c1f7 7ebd b9ef 9c3d
000001f0: 35a5 39bc 3b0e 65bd 2676 9b3d a54b 0f3c
00000200: 4d51 423e 6e81 393c 6662 333a 679b 1abd
00000210: 6e66 99ba 6bda 643d 4bc0 52be feca 02be
00000220: eaa7 4c3c a5d3 cfbc 421b e0bd 62bf bebd
00000230: 6215 773d 4b90 2dbd 3c0e c9bd 5ade 523b
00000240: a385 013d a577 53bd 75ba e63c e7ef bfbd
00000250: 21f3 85bd 4e91 2fbd f82e 373d be20 a93d
00000260: d601 49bd be5b c2bc 87fd c73c a1d7 3bbd
00000270: 1fea 963c 2b9f ebbc 2c53 243d f865 54bd
00000280: 9757 c23d 9300 b3bd 58a9 febd 9437 44bd
00000290: ada0 e83d 8bc7 5dbd 8d98 243d f5e8 493b
000002a0: 1457 73bd dec0 023e 3a86 5cbd 7826 c6bd
000002b0: 27d3 d4ba 9550 b1bd 1231 0bbe 7d70 2dbb
000002c0: 3af9 a73d e9d6 103d 113d 903d ccc5 343d
000002d0: 1963 a53d 894d 46bd ce74 25bc b475 9f3d
000002e0: 1100 853b 0c29 2bbe 854d e4bd e557 ab3d
000002f0: f963 173e 788c 74be 1c97 553c 5e79 853d
00000300: 6177 cc3b 6af4 b3bd c8fa e8bd d80e f53d
00000310: ad1b 3f3e 0b83 253e bca7 823d 1c86 733d
00000320: 3b53 753b 99c3 be3c 5ccd e0bd 8c0d c33d
00000330: 99a5 6f3d c84f ae3d e313 373e 32d1 85bd
00000340: 9549 253e a601 6f3d ba98 423d 12d1 14bd
00000350: d8b9 213e 08ce 0ebd 82ae 47bd 7210 1c3e
00000360: af7d 603d 2980 5cbd 014a bcbd 5aad 453d
00000370: 128f 18bd 33cb 6cbd e98e 9e3d 01c0 843c
00000380: f1d2 013d 8f0e d53d d673 bb3a fe2c 3e3e
00000390: a2f0 23be 2d38 3fbd 77e5 e43b 2b54 9ebd
000003a0: ee6c 013e ae63 8dbb a19a b6bd 6569 103e
000003b0: a021 e2bd dd9d f83c 5b97 013d 7281 18be
000003c0: 2ec4 41bd 356f 0c3e 6228 c9bd b0c1 55bd
000003d0: bedd bebd 9cac 0fbe f5cd a23b d5e0 7cbd
000003e0: 52f9 9d3a 4c4c 12be bd85 5fbe e292 253c
000003f0: 14c7 02be d2eb 5c3d 8b52 69bc b369 c53d
-0.012527782 0.06756072 0.040676557 0.004459487 -0.042295452 0.06727562 0.03932067 0.14298493
0.10084528 0.052173384 -0.091465876 -0.06297382 -0.03503109 0.07716762 -0.085523225 0.09602647
-0.0059855054 -0.045584314 -0.018004939 0.01977931 0.046287265 -0.12839165 -0.097228795 -0.05971723
0.17641433 0.03846094 -0.020530747 0.10155478 0.031370062 0.034523327 -0.009248093 -0.10850151
-0.08875059 -0.03097587 -0.020710703 -0.23998071 0.052429132 0.09891292 -0.11532396 -0.03724836
0.045047544 0.07436983 0.09004906 0.039426852 -0.18623582 -0.016534932 0.011529075 0.04252089
0.022267718 -0.030177131 -0.24809779 -0.17212234 0.10342996 -0.007260542 0.10531359 0.016972087
0.022449417 -0.050398953 -0.059040878 -0.0031477388 0.073866166 -0.042722534 0.11733636 0.065008156
0.06615796 0.01162379 0.008589126 -0.06611241 -0.020474251 -0.034277312 -0.113711245 -0.00829726
-0.13597809 -0.054062054 0.099125475 0.15581967 -0.18082671 0.06308233 0.0107151475 -0.21865086
-0.07758438 0.049764454 -0.0170375 0.04328087 -0.09770513 -0.0063053844 -0.10633937 0.012217811
0.0035308197 -0.052822847 0.029781865 -0.11193027 -0.043506984 0.028867127 -0.039039858 -0.080321744
-0.04483895 -0.05171766 0.11335921 0.12841967 0.012597053 0.15248822 0.059889812 -0.0025674019
-0.07767954 0.01052642 -0.10808083 0.07419672 0.08413754 0.004016339 0.049839277 -0.114305735
-0.017084518 0.10259964 -0.022931295 -0.1418633 0.02054809 0.11263996 -0.04433895 -0.019338245
0.03726673 0.06286657 -0.062247995 0.07662911 -0.011330892 -0.055921774 0.075908944 0.008746062
0.18976326 0.011322362 0.00068429706 -0.03774586 -0.00117035 0.055872362 -0.20581166 -0.12772748
0.012491206 -0.025369475 -0.10942699 -0.09313847 0.060323127 -0.042373937 -0.09817168 0.003217599
0.031621587 -0.051627774 0.028165082 -0.093719296 -0.06540514 -0.042863183 0.044722527 0.08258198
-0.049074017 -0.023725387 0.024412883 -0.045859937 0.018422185 -0.02876242 0.04011838 -0.051855057
0.09489363 -0.08740344 -0.124346435 -0.047904566 0.113587715 -0.054145377 0.040184546 0.003080902
-0.059409216 0.12768885 -0.053838946 -0.09675306 -0.0016237245 -0.08657948 -0.13592938 -0.0026464753
0.08201833 0.035361204 0.070428975 0.044133946 0.08075542 -0.048413787 -0.010098649 0.07786122
0.004058846 -0.16714877 -0.11147598 0.08366374 0.1478423 -0.2388171 0.013036516 0.065172896
0.006239817 -0.08786853 -0.11375958 0.11965722 0.18662901 0.1616327 0.06379649 0.05945407
0.0037433642 0.023286628 -0.10976669 0.09524068 0.058507536 0.08511311 0.1787868 -0.065340415
0.1614135 0.05835118 0.047508933 -0.036332197 0.1579355 -0.034864455 -0.048750408 0.15240648
0.05480736 -0.05383316 -0.091938026 0.048261024 -0.037245817 -0.057810973 0.07742102 0.016204836
0.03169531 0.104031675 0.001430149 0.1857185 -0.16009763 -0.046684433 0.006985362 -0.077308975
0.1263921 -0.0043148613 -0.08916212 0.14102705 -0.1104157 0.030348713 0.031638484 -0.1489313
-0.047306232 0.13714297 -0.098221555 -0.052186668 -0.09319638 -0.14030689 0.0049683996 -0.061737854
0.0012052453 -0.14286917 -0.21828361 0.01010582 -0.12771255 0.053935833 -0.014240871 0.09639301

network_body._body_endoder.seq_layers.2.bias f4 [128]
00000000: fd62 c0bb 4f7c b6bb 89b6 0ebc 1c78 ffbb
00000010: 5bc1 b53b daf3 593b 2dee 3dbc a2df b5bb
00000020: a871 de3a 8564 c33b f0bf 823c a1a1 76bc
00000030: 75b4 4f3c 591e 3dbc 9a33 5d3b ae99 8339
00000040: 624a 5fbc ebb6 7cbb e3fc da3b a8d4 003c
00000050: dcbe ec3b c599 3d3b 95a5 efbb ecde 82bb
00000060: 97db 11bc 8252 86bb 5d6b 32bc dcb0 8d3b
00000070: e1f8 703c 664b 22bc 8745 4cbc e70c 0c3c
00000080: 3e30 ed3b 1a1b 473c 68e6 08bb a452 2b3c
00000090: 4292 00bc dc7e 9a3a 5995 2e3c 8cc6 88bc
000000a0: c71f 863b 80a9 f63b ea87 89bc 1847 303c
000000b0: 5127 65bc 1d1c f0ba 519e 073c c091 1abc
000000c0: 9989 51bc 1237 6b3c 947d 213c aec8 f93b
000000d0: 48c3 633b 2deb 1fbc 2a2b fb3b f9aa 0bbc
000000e0: 4b9a c33b 3707 32bc 1f73 1c3c d301 8f39
000000f0: 8475 1b3b caa1 fd3b c838 9bbb d09c 33bc
00000100: c299 b63a cdf0 863b bebe da3b 40d5 2b3c
00000110: 3e1e faba dbc5 97bc 041b 48bc 8861 b7bb
00000120: 1308 123c 1b0c 1fbc ccf9 f3bb dfd0 d7bb
00000130: 5d5a 4dbc 02d4 4dbc bcc4 a93c 881f 2dbc
00000140: d08a e73c 8e92 afba ad93 e53b a7fa 05bc
00000150: de2b 19bc 3a05 6dbc b3de d43c 0560 c53b
00000160: c464 8d3c 4cc4 8dbb fb0a 6bbc bda5 503b
00000170: 9970 37bc 9e97 1cbb 101a 89bc 3cc0 88bc
00000180: e894 4b3c 395a d539 5dae 9e3b a81e c0bb
00000190: dae0 20bb 9b9e b73b f64d 243b 4d03 943b
000001a0: bfa1 06bc a1f2 5ebc 42ac 1ebc b145 bbbc
000001b0: 5af7 1e3b 6f09 ad3b 4cfa f43b 8b5e 06ba
000001c0: 032d 90bc 3b1c 0ebb fdbb 1bbc f7a2 203c
000001d0: e16c 0d3c c5d5 183c 8fe6 013c 751d 03bc
000001e0: d73f d0bb 2813 22bc aae1 e33b 1c45 203b
000001f0: dec0 84bc 2d1f 0c3b 930c 33bc 636c 0b3c
-0.0058711753 -0.005569018 -0.008710512 -0.0077963006 0.0055467314 0.003325692 -0.01159243 -0.0055503407
0.0016971128 0.0059629106 0.015960664 -0.015053184 0.012677302 -0.01154288 0.003375268 0.00025100767
-0.013628574 -0.0038561176 0.0066829785 0.007863201 0.0072249006 0.0028930765 -0.00731344 -0.0039938595
-0.008902452 -0.004099191 -0.010889855 0.004324062 0.014707775 -0.009905672 -0.0124677485 0.008547998
0.007238417 0.012152458 -0.0020889286 0.010456715 -0.007847371 0.0011787075 0.010655724 -0.016696237
0.0040931436 0.00752753 -0.016788442 0.010759138 -0.013986425 -0.0018318925 0.008277492 -0.009434164
-0.0127891535 0.0143563915 0.0098566 0.0076228 0.0034753848 -0.00976066 0.0076650577 -0.00852465
0.005969321 -0.010865978 0.009548931 0.00027276445 0.0023721168 0.007740234 -0.0047369935 -0.01096268
0.0013931321 0.004118061 0.0066755703 0.0104878545 -0.0019082499 -0.018526962 -0.012213472 -0.0055963434
0.008913058 -0.009707476 -0.0074455496 -0.0065861787 -0.012533751 -0.012562754 0.020723693 -0.0105666
0.028264433 -0.0013395117 0.0070061297 -0.008177436 -0.009348838 -0.014466578 0.025985098 0.0060234093
0.017259963 -0.004326379 -0.01434588 0.003183707 -0.011196279 -0.0023894082 -0.01673606 -0.016693227
0.012425639 0.00040693747 0.004842563 -0.0058630295 -0.0024548084 0.005603624 0.0025070882 0.004516995
-0.008217274 -0.013607652 -0.009684624 -0.02286038 0.002425632 0.0052806656 0.007476127 -0.00051257823
-0.017599588 -0.0021684307 -0.009505269 0.009804479 0.008631916 0.00932831 0.007928505 -0.008002629
-0.0063552666 -0.0098922625 0.0069543915 0.0024455255 -0.016205247 0.0021380887 -0.010928291 0.008509728

action_model._continuous_distribution.mu.weight f4 [1, 128]
00000000: bf86 cfbc f619 87bb c028 bdbc 4e00 79bb
00000010: 09d4 d93c f36a 693b 4e75 fcbb 81a7 52bc
00000020: 1638 81bb d401 473c 5f72 043d 5ed5 873b
00000030: 0363 563c c7fc a9bb c0c6 81ba b1dc 2bbc
00000040: 573f 0cbc 1716 4abc c11e 063d c54d 233c
00000050: 487f cf3c be40 1a3c 9068 11bc 2646 f3bb
00000060: 76e6 2b3b 65d8 40bb 7c8c 52bc 8d1f e5bb
00000070: a9b4 903c 12b4 593c e171 93bc cde1 9e3c
00000080: fbfe 673c 5c34 47bd 65e8 7dbb e08b bc3b
00000090: 0afe 313b d6f0 38bd a6cf 8f3b 0f59 4bbc
000000a0: e74e 9a3b b639 ac3b 8262 89bc 3d69 3ebd
000000b0: d0a7 0dbc f5b0 86bc 5e61 c53c 6003 aabb
000000c0: 53cb 9dbc 10e6 3d3c 1d1f ba3c 67a5 a73c
000000d0: 8ec7 c93c 0fcb 12bc f427 c03b c24f eebc
000000e0: d63c ac3c 7490 a8bc ecdf 42bd 97e2 883c
000000f0: c7ba 183c 6009 02bd 1a25 9fbb 4bf0 eebb
00000100: 9a02 ea3b 0c56 003c 59c0 cf3c c96e 1d3c
00000110: 3d3d fa3b 5c0e d8bb 98ad c037 df50 f3bb
00000120: adef c63c 053c ca3a 5971 debc e91d 63bc
00000130: b30d 18bc a040 f2bc 1b77 9ebd 552e 3939
00000140: 7835 62bc 481d 40bc 5f64 2c3c 5a29 1cbc
00000150: d983 8bbc 68bc 24bc eff3 0f3d ba3c 223c
00000160: 78fd d93b af3d f3bc 363b 3dbc 1f70 113c
00000170: 1657 d6bc 9af2 04bd 3e0d 5ebb 5d68 0cbd
00000180: 8233 523c 5feb 8ebc 1349 8e3b 618b 17bc
00000190: bc8b debc 75c1 193b e47d fc3b 23ef 1c3b
000001a0: 8f8b 14bc 7608 cbbc 2e5b 71bc d20c 943c
000001b0: a87e 6f3b 2ca9 923b 714c a73b c402 443a
000001c0: 0b76 88bc 9194 cebc 256a a6bc 78f9 8e3c
000001d0: 18a3 893c 5a46 f63c 3924 9c3b b228 25bd
000001e0: 9890 cdbc ed86 bfbb d25d 663c efe4 2ebc
000001f0: bced 62bc 4363 c03b bcbf a9bc 1559 f73b
-0.025332807 -0.004122968 -0.02309072 -0.0037994566 0.026590364 0.0035616725 -0.0077044135 -0.012857319
-0.0039434535 0.012146432 0.032335635 0.0041453084 0.01308513 -0.005187604 -0.0009901151 -0.010489629
-0.008560023 -0.012334368 0.032744173 0.009967272 0.025329247 0.00941485 -0.008875027 -0.007424134
0.0026229895 -0.0029425856 -0.012850877 -0.0069922865 0.01766427 0.013287561 -0.017998638 0.01939478
0.014159913 -0.04863392 -0.0038743254 0.005753979 0.0027159476 -0.045151554 0.0043887673 -0.01241137
0.004709113 0.005255903 -0.016770605 -0.04648708 -0.008645967 -0.016441802 0.02409428 -0.0051883906
-0.019261992 0.011590496 0.022719914 0.020464612 0.024631288 -0.008959546 0.005864138 -0.029090766
0.021025103 -0.020576693 -0.04757683 0.016709609 0.009321875 -0.031747222 -0.004856718 -0.0072918287
0.0071414234 0.007833015 0.025360273 0.009608933 0.0076366947 -0.0065935086 2.296902e-05 -0.007425412
0.024284208 0.0015429264 -0.027153658 -0.013862112 -0.00928061 -0.029571831 -0.07737561 0.00017660235
-0.013806693 -0.011725731 0.010521977 -0.009531343 -0.017030643 -0.010054685 0.035144743 0.009902174
0.0066525303 -0.029692499 -0.0115497615 0.008876829 -0.026164573 -0.032457925 -0.0033882405 -0.034279216
0.012829663 -0.017446218 0.004342207 -0.009249539 -0.02716624 0.0023461257 0.007705437 0.0023946248
-0.0090664765 -0.024784308 -0.014731212 0.01807252 0.0036544 0.0044757333 0.005105548 0.0007477219
-0.01665785 -0.025217326 -0.020314286 0.01745294 0.016801402 0.030062843 0.0047650603 -0.040322013
-0.025093362 -0.005844942 0.014060454 -0.010674699 -0.013850626 0.005871208 -0.020721309 0.007548461

action_model._discrete_distribution.branches.0.weight f4 [2, 128]
00000000: 0fc0 44b8 f587 9bbb af0c 11bb d797 95ba
00000010: bfa1 4cbc dafe 4a3b 80eb aebb 993b f1bb
00000020: e378 083c f2fc 1a3c a1dd 543c 87a4 0dbc
00000030: eaa0 9d3c 9a83 603a b7b1 173b 5c50 19bd
00000040: 35a9 deba 260a 473b 0dc2 07bc c0ad f13b
00000050: 100e fbbb f0f1 2b3b ce8e 4eba 0ab0 793b
00000060: c364 383b 7119 113c 8dda 1f3b 4169 83bc
00000070: 4b60 b73b 8637 c0bb 3a99 aebb 5d28 823b
00000080: fb4a 84bc 7138 f6bc bb12 c93a 4966 8d3c
00000090: 087d 4bbc 79fa 64bc 4725 abbb 9970 30bb
000000a0: 08c2 05bc 79cb 0f3c e78f 6d3c 8d25 aebc
000000b0: 76d4 c039 e226 e1b8 5a86 cc3b f762 b639
000000c0: d344 09bc 860e e83b f352 523a 290b 7ebc
000000d0: e02f 6d3c 462b a43b 41da 663c 0842 25bc
000000e0: 0882 b1bc 5119 6c3b 9d35 ff3c 6167 683c
000000f0: 3ef1 34bc c046 12bb b061 1cbb 0993 a63b
00000100: 722d 3b3b 6183 ce3c 7e89 28bc 51e2 643b
00000110: 11cc 72bc af4f c8bb c3c9 08bc c1e0 c8bb
00000120: 94c9 fabb f728 83bc 053a 133b dda1 70bb
00000130: 9107 e93b 5b7b c73b 12a6 9ebc 1e57 5f3b
00000140: cdd9 533c 4d31 3e3c 2f4d cb3b f147 c6bb
00000150: f036 553c e0cf 4f3c 933b 4ebc dc22 2c3c
00000160: 79b0 d23c 6eb2 283c c384 90bb 26d7 a13b
00000170: 6888 863b eba3 a83c d845 47bb ceb8 583b
00000180: 7d5b 71b9 ba45 e7bb 1e32 ca3a 3f6a d83a
00000190: 61e9 b5bb 1923 e53b 3731 a2bb 7512 ab3b
000001a0: 53fc 16bb 4330 5fbb 76a2 0f3c 128c b2bc
000001b0: a05a e93b 0588 d63b 677d 903c 7ff4 eb3a
000001c0: bd54 18bc 5055 403c 1ffa 98bc 42db fd3b
000001d0: a513 3ebb 620a 8dbb 890e e23b bcbd b23b
000001e0: 345c 2d3c 54da 073c 9282 d8bb 49e2 74bc
000001f0: 05a0 debb 9b5e 9d3a 6300 c23a 8ba4 913c
00000200: 0f7d aa3b 258d 04bc 9e9e 36bc 2aae 5abb
00000210: 994a f2ba 66e7 ec3b 6b82 473c 6d75 9d3b
00000220: fe9b 87ba 78b4 283c a423 64bc cb8d a33c
00000230: 1009 02bc f8ed 443c 8d90 2dbc 2ddc ee3c
00000240: 51f2 43bb be2a 13bc d2b0 203c 9188 67ba
00000250: 6f80 473b dcb9 243c 9f7f 40bc 2e55 30bc
00000260: a873 5b3c 4371 21ba 0d6c bebc c520 ca3c
00000270: 50d4 01bc f5be 483c 7fc7 eb3b 2401 b43b
00000280: eeeb 0f3c a454 b83c fede 6cbc 9c18 9f3b
00000290: 5fb4 6fba 4ec5 11bb 8f24 b53c fb75 3c3a
000002a0: 0e3f d5b9 a774 73bb d4fe 8f3c 94e6 95ba
000002b0: 9963 e4bb fcc1 4a3a 88c4 25bc 41bd b9ba
000002c0: 4d44 873b 81ac d3bb 811b 51bb 1acc bdba
000002d0: 8f5d 833c 3de4 d4ba 2350 92bb b493 01bc
000002e0: 880c 8d3c e8a0 133c a505 b1bc e1f0 623c
000002f0: 787e 233b 8821 80bc 2a59 65ba f36a c33b
00000300: d94d 853c ece0 3cbc c73f f6bb 2f59 45bc
00000310: bf21 883b b88a b23b 7229 883b b8d3 a4bb
00000320: e97f 7abb 78f5 583c f908 a7b9 61d7 37bb
00000330: 5f77 e43a 3a5f 82ba 64c6 2bbb 5036 3ebb
00000340: 0109 d9bc fc89 17bc 6918 9f3b 0639 7cbc
00000350: f6fb abbb d5e2 1d3c d025 ecbb 21b7 beba
00000360: ae1c 2cbc 2f57 913b 5e42 b93a 4319 243a
00000370: 0592 e6b9 bfdf cabc 74fa ac3a 2a01 063c
00000380: 6c79 90bc 2f57 aabc b6d8 7e3b c8fa 6fbc
00000390: 1535 c53b 6fdf d2bc 64c2 cbbc b730 27bb
000003a0: 4f14 2abc 6487 543c d778 4aba 588b d9b7
000003b0: 2e54 aa3a 037e 763b 2dc3 55bb 0f47 97ba
000003c0: 7335 573c 3f2c 73bb 704e a03c df02 7bbb
000003d0: f90b 2e3b 0ddc 1fbb 5c77 c8bb 558b 33bc
000003e0: 6386 483b 529e 993a 8744 063b 5321 c63c
000003f0: e975 83bb e0f1 0039 e049 993c 37b5 c5bc
-4.690891e-05 -0.004746432 -0.0022132804 -0.001141305 -0.012489735 0.0030974657 -0.0053381324 -0.007361841
0.008329603 0.009459721 0.012992294 -0.008645183 0.019241769 0.0008564532 0.0023146698 -0.037430152
-0.0016987683 0.003037104 -0.008286011 0.007375449 -0.0076615885 0.0026236735 -0.0007879556 0.0038099312
0.002813623 0.008856163 0.002439174 -0.0160414 0.005596196 -0.005865994 -0.0053283246 0.003972097
-0.016149035 -0.03005621 0.0015340665 0.017260687 -0.0124199465 -0.013975733 -0.0052229497 -0.0026922582
-0.008163936 0.008776539 0.014499641 -0.02125814 0.0003677939 -0.000107360785 0.006241602 0.0003478748
-0.008378225 0.0070818095 0.00080232247 -0.0155055905 0.014476746 0.0050100414 0.014090122 -0.010086544
-0.021668449 0.0036025832 0.031153494 0.014184804 -0.011043845 -0.0022320002 -0.0023861937 0.005083446
0.0028561023 0.02520913 -0.010286687 0.0034924934 -0.014819161 -0.0061130146 -0.008348885 -0.0061303084
-0.0076534245 -0.016010744 0.0022465002 -0.0036717572 0.0071114977 0.006087703 -0.019366298 0.0034079025
0.012930346 0.011608434 0.0062042694 -0.0060510566 0.013013586 0.012683839 -0.012587446 0.010506358
0.025718914 0.010296447 -0.0044103577 0.004938978 0.0041056164 0.020585975 -0.003040662 0.0033069137
-0.00023017633 -0.0070578726 0.0015426313 0.0016511156 -0.0055515026 0.0069927094 -0.0049497145 0.005220706
-0.002303858 -0.0034055866 0.008766761 -0.021795306 0.007121399 0.0065469765 0.017637921 0.0018001943
-0.009297547 0.01173909 -0.018673955 0.007747085 -0.0029003408 -0.0043042162 0.0068987054 0.005454747
0.010581065 0.0082918 -0.006607362 -0.014946529 -0.006793978 0.0012006344 0.0014801141 0.017778656
0.0052028964 -0.008090292 -0.011146216 -0.003336797 -0.0018485367 0.0072297333 0.01217709 0.004805258
-0.0010346172 0.010296933 -0.013924513 0.019965073 -0.007936731 0.012019627 -0.010593546 0.029157722
-0.002989907 -0.0089823585 0.009807782 -0.00088323007 0.0030441543 0.010054078 -0.011749177 -0.010762496
0.013394274 -0.000615854 -0.023244882 0.024673829 -0.007924154 0.012252559 0.0071954126 0.0054933
0.008784277 0.022501297 -0.014457462 0.0048552286 -0.0009144004 -0.0022242847 0.022112159 0.00071892113
-0.00040673505 -0.0037148388 0.017577566 -0.0011436515 -0.006969881 0.00077345944 -0.0101176575 -0.0014170782
0.004128015 -0.006459773 -0.0031907263 -0.0014480383 0.016035823 -0.0016242337 -0.0044651194 -0.00790875
0.01721789 0.009010531 -0.021609137 0.013851375 0.0024947207 -0.015640989 -0.0008748943 0.005963677
0.016272472 -0.011528235 -0.007514927 -0.012045189 0.0041544135 0.0054486655 0.0041553313 -0.0050301217
-0.0038223213 0.013242118 -0.00031859407 -0.002805196 0.0017430595 -0.0009946593 -0.002621078 -0.0029024072
-0.026493551 -0.009249207 0.004855205 -0.015394455 -0.005248542 0.0096366005 -0.007206656 -0.0014550426
-0.010504885 0.004435442 0.0014134159 0.0006259868 -0.00043977812 -0.024764894 0.00131972 0.0081789885
-0.017636023 -0.020793526 0.0038886494 -0.014647193 0.0060182908 -0.025741307 -0.024872966 -0.0025511214
-0.0103808185 0.012971733 -0.0007723695 -2.5933303e-05 0.0012995058 0.003761173 -0.0032617555 -0.0011541563
0.013135302 -0.003710523 0.019568652 -0.0038301272 0.002655743 -0.0024392635 -0.0061177444 -0.010958512
0.003059768 0.0011720157 0.0020487623 0.024185812 -0.0040118587 0.00012297137 0.018711984 -0.024134262

action_model._discrete_distribution.branches.0.bias f4 [2]
00000000: 0003 6d3c 0303 6dbc
0.014466047 -0.01446605

action_model._discrete_distribution.branches.1.weight f4 [10, 128]
00000000: 6a55 953c 7d9e acbb 70dd 6039 7ab0 6e3c
00000010: 1174 ad3c e313 5dbc 9516 0ebc 9c79 deba
00000020: 013a 9dbc 19ca b13b 948a 103b 3c76 8e3c
00000030: a565 1cbb 8f9e bb38 b0b4 9aba a765 053c
00000040: f6d6 f73a aeb4 4fba 4ca2 a6bb 79e9 46bb
00000050: 08e7 81bb d21e d6ba a212 223b 7edb 283c
00000060: ea30 84ba 52a5 403b c7d7 ddbb f606 d8bc
00000070: 71de 13bc ce1c 33bc e0df 0abc e8d7 9aba
00000080: 7007 08bc 4cd1 63b9 588a d7bb 0288 5abb
00000090: d5d7 b5ba ae8d b43b a802 bfbc 21e4 873b
000000a0: 3c3a 853c 5047 c53b 1654 62bc 0aa6 163c
000000b0: 6092 9d3c ade4 8ebc 88f1 e73b 649a d6bb
000000c0: 623b f83b 2f81 913c b367 4ebc 5543 4fbb
000000d0: c0e5 2fbc 3f2c 9ebb e27b ee3b d70b 4f3b
000000e0: 0ba5 263b 6861 113c 91bd 09bc f93a 733a
000000f0: 59ad 3f3b 31a0 5f3c 76c9 30bc ff2c b53b
00000100: 79e2 ee3b 24ed f8bb 660b 0a39 ccda 9fbb
00000110: ff6d 993c 2763 0e3b e3d1 c4b9 b119 3dbb
00000120: 8858 2ebc 1dad dd3b ad56 e0bb 7aa4 82bb
00000130: e644 573b 31a5 a13c 02b6 d93c e484 863b
00000140: e4f0 babc 35e8 9f3b 0436 71bb b1e3 debb
00000150: 75b1 3bba fb31 abba 4568 78bc 7f39 d1ba
00000160: 5d62 1abc e420 2d3b ac0f 063c e907 5bbb
00000170: 67d3 683c 438d c2bb 5eae b9ba 7e68 98bb
00000180: 2a6c b63b b05c 65bc a9c4 2ebc 6be7 f53a
00000190: 912f 93bc fbdb 353c a42f 993c aa6f 74ba
000001a0: 09ce 46bc 26ee 213c a782 823c 60a7 70bc
000001b0: d082 9fbb 6c84 06ba 7433 51bc bec8 9bbc
000001c0: 7dbc 82bb 23a4 593c 05c6 c4bb 4734 063c
000001d0: eb3a 713c 2890 d53b 6950 323b 20bb 213c
000001e0: b974 ceba 26e0 623c 2372 863c c163 c53c
000001f0: be9f 5a3b beb6 53bc 8b02 0dba 1559 5fbc
00000200: 0d2a aebb 501e 8ebc 69e6 b5bb 2abb ccbb
00000210: 93a9 b33b da26 71bb 39fd 073a e74c a0bb
00000220: 20aa e5bb 999d 8939 5e71 80bc 749c 4dbb
00000230: 8fe3 e83b c71d 283c a8bb 0b3c 6119 acbc
00000240: 2447 30bb 2782 97bb 14ee 9e3c 4de5 123c
00000250: 8480 843c c8a1 0f3c 85ff bdbb 340d 203c
00000260: cebb 843c 8cc7 04ba 48b2 5a3c 5a72 37bc
00000270: 0319 a2ba 949c 17bc dbe4 33ba 0ddf afbb
00000280: 262e c83b e607 c4bc 2273 963b 6749 26bc
00000290: 66f6 9dbb a8c7 823c e5a7 0b3d b201 5d3c
000002a0: 0fce 203c 385c 09ba 05a7 a2bc 0953 ff3a
000002b0: 30fb 13bc 85a6 93bb a1d4 aebb d7cb 1b3c
000002c0: bef2 b2bc 8cb6 be3c 8d48 c83c a5c2 5d39
000002d0: ea75 32bb e06d 553b 63fb c6bb fbca 9e3c
000002e0: 0ee4 263c 99f4 0fbc ef4c 363c cfec 2cbc
000002f0: 58f8 593c a20e 923b 3e75 5fbc 041f 1d3b
00000300: 5077 c03a fc10 dfbc d642 38bb 37ec 5bbb
00000310: 919d 2a3c 8a71 9fb9 1667 16bc e762 b03c
00000320: 1950 263a 4732 bebb 05bf 843b 8f30 3d38
00000330: bca7 fa3b 04e9 21bb 3f0f 963a e946 08bb
00000340: 5a63 ce3c ca8a 173b 3adb 90bb 0933 a53a
00000350: 483d 223b 3e4e 9ab7 b83e 73bc db2a 9cbc
00000360: 6e07 af3c 00d9 4e3c e1cc f4b8 67fc 3c3c
00000370: ea62 8a3b 6af7 023c d265 cabb 2e1f 103a
00000380: 41f8 2eba 05b7 7fbc a990 563c cc31 4e3c
00000390: 40a5 b4bb db7a 7c3a 8fa1 15bc 1452 59ba
000003a0: 9654 593c f59b 7e3c 21a7 84bb d4c5 ec3b
000003b0: 3d4f a33b 495f 88bb b3eb ee3b c228 f8bb
000003c0: c5b9 183a fbf4 ffbb 7450 3ebb 8d4f c1bb
000003d0: 4410 eb3b 253a 88bb 955a acbb 1498 67bb
000003e0: c0cb 4bba d2c2 ed3b 5753 0b39 f4d2 38bb
000003f0: f764 52ba d849 d23b a44e 813c 0d5f 2c3c
0.018229205 -0.0052679167 0.00021444797 0.0145684425 0.021173509 -0.013493511 -0.008672376 -0.0016973498
-0.019192697 0.0054257032 0.0022055255 0.017390363 -0.0023864296 8.946389e-05 -0.0011803117 0.008141912
0.0018908668 -0.0007923347 -0.0050852653 -0.0030351563 -0.0039643086 -0.001633609 0.0024730344 0.010306237
-0.0010085378 0.0029395414 -0.0067701074 -0.026370507 -0.009025202 -0.010932161 -0.0084762275 -0.0011813613
-0.0083025545 -0.00021726376 -0.006577771 -0.0033345227 -0.0013873527 0.0055100536 -0.023316696 0.004147068
0.01626312 0.006020464 -0.013813993 0.00919486 0.019234836 -0.017443025 0.0070783533 -0.0065491665
0.0075754384 0.017761795 -0.012597966 -0.0031625826 -0.010735929 -0.004827052 0.0072779516 0.003159275
0.0025427963 0.008873321 -0.008407013 0.0009278502 0.002924761 0.013649032 -0.0107902195 0.0055290456
0.0072901812 -0.0075966287 0.00013164952 -0.0048783775 0.018729208 0.002172658 -0.0003754041 -0.0028854425
-0.010641225 0.0067650215 -0.00684627 -0.0039868923 0.0032847463 0.01973209 0.026576046 0.0041051973
-0.022819944 0.004879976 -0.0036805877 -0.0068020453 -0.0007159927 -0.001306116 -0.015161579 -0.001596257
-0.009422866 0.002641731 0.008182447 -0.0033421463 0.0142105585 -0.00593725 -0.0014166345 -0.0046511283
0.0055670934 -0.013999149 -0.010667005 0.0018760985 -0.017967017 0.011099811 0.018699475 -0.00093245006
-0.012134084 0.009883439 0.01593144 -0.014688343 -0.004867889 -0.0005131427 -0.012768615 -0.01901662
-0.0039897547 0.013283762 -0.006005051 0.008191175 0.01472352 0.006517429 0.0027208573 0.009871274
-0.0015751339 0.013847386 0.016411847 0.024095418 0.0033359374 -0.012921987 -0.0005379102 -0.013632079
-0.0053150714 -0.017348439 -0.0055511487 -0.0062478976 0.0054828613 -0.003679684 0.00051875744 -0.00489198
-0.007008806 0.00026248096 -0.015679058 -0.003137377 0.007107205 0.010261006 0.008528627 -0.021008195
-0.0026897872 -0.0046236697 0.019400634 0.008965802 0.016174562 0.008766599 -0.0057982826 0.009768773
0.016202834 -0.0005065135 0.01334817 -0.011196697 -0.0012367073 -0.00925364 -0.000686241 -0.005367166
0.006109017 -0.023929548 0.0045913616 -0.010149336 -0.0048206327 0.015964344 0.034095664 0.013489174
0.009814753 -0.0005239877 -0.019855032 0.0019479702 -0.009032056 -0.0045059347 -0.005335406 0.009509048
-0.021844264 0.023280405 0.024448657 0.00021148713 -0.0027230927 0.0032566711 -0.006072448 0.019383898
0.010186208 -0.008786344 0.011126741 -0.010554506 0.013303839 0.004457311 -0.013638793 0.0023974786
0.0014683995 -0.027229778 -0.002811601 -0.0033557543 0.010413543 -0.00030411436 -0.009179851 0.021531535
0.0006344333 -0.0058043334 0.0040510916 4.5106335e-05 0.00764939 -0.0024705539 0.0011448635 -0.002079422
0.025193859 0.0023123496 -0.004420665 0.0012603711 0.0024755765 -1.8394665e-05 -0.014846496 -0.019063404
0.021365847 0.012624979 -0.00011672988 0.011534787 0.0042232173 0.007993558 -0.0061766887 0.000549781
-0.0006674566 -0.0156076 0.013096013 0.012585115 -0.0055128634 0.0009631344 -0.009132757 -0.00082901237
0.013264796 0.015540113 -0.0040482436 0.0072257314 0.004983811 -0.0041617495 0.007291281 -0.007573218
0.00058260217 -0.0078111864 -0.0029039653 -0.005899376 0.00717357 -0.004157322 -0.0052598217 -0.0035338448
-0.00077741966 0.0072558904 0.0001328712 -0.002820191 -0.0008025909 0.0064174943 0.01578457 0.010520709

action_model._discrete_distribution.branches.1.bias f4 [10]
00000000: 46d8 a0bb c807 543b bd0d 023b 3c6f 4cbb
00000010: cca2 163c f2b9 1aba 020c 243b 4103 093b
00000020: d5be cdb9 fd50 56bb
-0.0049085943 0.003235327 0.0019844614 -0.003119423 0.009194087 -0.0005902342 0.0025031571 0.002090648
-0.00039242828 -0.0032702081
